finreport_model.pth (torch, 918599 bytes, 9 tensors)

lstm.weight_ih_l0 f4 [512, 59]
00000000: 8d38 1b3e 1fc0 6e3e 0413 3b3e 3fb2 c43d
00000010: e21a 7cbd b0bb 03be 02a3 66bb b310 9cbe
00000020: fcc5 0fbe be8b 9c3e 926d 5dbd 60c6 c5bd
00000030: 4f7a 60bd a3bd c7bb 2e7a 83bd 47a9 893d
00000040: 7adb 643d 1ba7 cf3c f26a 643d 4849 ac3d
00000050: dc02 1fbc 116a 213e 6cdc c8bb 6bd5 eebd
00000060: d9ae cb3d 9935 253e d151 37be 01da 23be
00000070: 465d cf3e 7d18 5a3d e4df 58be 5a92 b83d
00000080: c5a1 263c 9077 54bd fe41 91bd 0031 13bd
00000090: 4465 8dbe 0723 0c3e f72d cf3d 5d21 17be
000000a0: 8428 433e 4665 1d3d b097 6f3d a52a 883e
000000b0: 1135 17be 0238 7fbe 8ba7 5a3e 5498 93bd
000000c0: accd 6cbe 8430 b73e 9c50 463e c7fc 0ebe
000000d0: d621 213e ea90 28be 8eaf a93c a522 623e
000000e0: 4f13 633e 2078 90bd 973d 843c 1abc 84bd
000000f0: 220f d4bc 5e7a 85bd 5280 733d d6f7 f33e
00000100: b011 1a3e d0d4 513e c3da 87bd c659 0b3e
00000110: 4f00 333e fe1d 1fbd 98e2 d23d e762 f93d
00000120: ef91 863d 22bf 02be adb1 00be f622 6b3e
00000130: 02d6 74bd 3f42 883d 8771 9e3d ab5c bb3d
00000140: de04 0fbe f9fb 0fbd 9877 413e c8fe e1bd
00000150: bf6a 173e e809 08bc 4e9c 94be d055 96be
00000160: 3ed5 743d 9047 533e 5614 2fbc 051e 193e
00000170: c343 34bd 8b42 19be 86b9 7cbc 6188 453e
00000180: c727 cf3e 7f46 86bd c0b1 a13d ee94 3bbe
00000190: 4701 55be 5430 5f3e 1439 9ebd 3101 053f
000001a0: 979d bebc acca 14be 3ac9 593e 8732 edbe
000001b0: a8f5 da3e 7a16 4bbd 3583 793c 5038 f7be
000001c0: 0f49 833e 0d72 483d 5ee4 e83b 40c3 88be
000001d0: b112 f0bd a237 1cbe a31f 66bd 5445 8ebd
000001e0: a2fb 27be e55a 2cbe 33b3 acbd d9af 0a3d
000001f0: f193 813d 922b f43d 5f07 45bd 3c1b 0abe
00000200: 90ee 0b3d 4c96 86be 07af f1bd e4d6 fdbd
00000210: 1596 263d 0ea5 473e 2fb2 c53d 1000 c8bd
00000220: f4f3 50bd 8414 223e 4f41 0fbe 8647 193e
00000230: 5164 4b3e 62ad afbe 9f4b 103d 24f0 4abd
00000240: 435a 13bd b5a8 6dbe c076 bf3e 1eb5 733c
00000250: cc4d 073f 3320 533d 28fc 25bd 3016 42bd
00000260: a9e7 41be 064e e1bd 8705 723e 4832 cd3d
00000270: b990 343e c8c7 ab3d a584 5ebe 1841 003c
00000280: f8c8 943c e824 6f3c 83fc 943d 328a 52be
00000290: d163 213c d01f ebbc 1090 cfbe 5994 4cbd
000002a0: 6cbd 7d3d 8e7d 35be 4473 7b3e e1e5 a7be
000002b0: 0b28 053e 09d0 da3d 7719 dfbe 72e0 12bc
000002c0: a964 e83d 2ec1 04be 25ae 91bd 2c82 52be
000002d0: 8df7 1cbe a14d 093e 6f1d 893e e5d0 d83d
000002e0: d4de b43d 57b9 e53d be00 903e ad84 95bd
000002f0: 5e1e 3b3e 60f7 35be c5d0 723d ed70 acbc
00000300: 1ea5 fabc ea40 453c 6c0b ad3d 86ac 18be
00000310: 1d61 fbbd aa43 7cbe f9fe 74bd f99f 1c3e
00000320: d4f8 ec3c e6a6 7c3e 74c6 823d 72ef 183e
00000330: 1278 25bd a127 0c3e 5fcb 34be be40 90bd
00000340: 1bb1 593d 2a8d 973d ed1e a83d 5441 d93d
00000350: 81cb 8cbc 84c9 a63e dc9d 493e 2252 383e
00000360: d733 8e3d 9db6 de3c fc6d d73e 06fe 053d
00000370: 12fc 3dbe e173 19be 32cf f83c 579b 38be
00000380: e541 0f3e cb28 68be 8785 953e 9c2f 503e
00000390: 7a78 b53c c132 bb3e dd33 84bd cfd4 1bbd
000003a0: 199e 4f3e 155c 8fbe 3a34 d9bc 1784 453e
000003b0: 2435 97ba 0a88 d83d 6a8e d73c b2e1 363d
000003c0: 6750 623e 31df 0d3e 1907 923e 696e 393e
000003d0: b01d 16bd 873d bcbd 09cd 023e f3ca 33be
000003e0: b56e 2bbe e4df 743e a0b8 d4bd 8468 4abd
000003f0: ce79 d8bc 3523 30be 6946 17be 857e 3cbe
0.15158291 0.23315476 0.18268973 0.0960431 -0.061549075 -0.12864566 -0.0035192375 -0.3048149
-0.14040369 0.30575365 -0.054059573 -0.09656978 -0.054804143 -0.0060956045 -0.06419788 0.0672174
0.05587337 0.025348237 0.055766053 0.08412415 -0.009705272 0.15763117 -0.006129792 -0.116618
0.09945459 0.16133727 -0.17902304 -0.1600113 0.4050085 0.05324601 -0.21179157 0.09012289
0.010170405 -0.051871836 -0.07092665 -0.035935402 -0.27616322 0.13685237 0.10116189 -0.14758821
0.19058424 0.03842666 0.05849427 0.26595035 -0.14766337 -0.24923709 0.21352975 -0.07206789
-0.23125333 0.35779202 0.19366688 -0.13963614 0.15735564 -0.1646153 0.020713594 0.22083528
0.22175334 -0.07054162 0.01614265 -0.0648119 -0.025886122 -0.0651748 0.059448548 0.4765002
0.1504581 0.20491338 -0.06633522 0.13608465 0.17480586 -0.038846962 0.102971256 0.12177067
0.065708034 -0.12768224 -0.12567778 0.22962555 -0.059774406 0.066532604 0.07736497 0.091485344
-0.139667 -0.03515241 0.18893278 -0.11034924 0.14786814 -0.008303143 -0.290255 -0.29362345
0.059773676 0.20632768 -0.010686001 0.14952858 -0.044009935 -0.1496679 -0.015425092 0.19290306
0.40460035 -0.06556415 0.07895231 -0.18318531 -0.20801269 0.2179578 -0.077257305 0.5195494
-0.023268504 -0.14530438 0.21268168 -0.46327612 0.42765546 -0.049581982 0.015229036 -0.4828515
0.25641677 0.048936892 0.0071073016 -0.26711464 -0.11722315 -0.15255597 -0.056182515 -0.06946817
-0.16404584 -0.16831549 -0.08432617 0.033859108 0.06327046 0.11922373 -0.048102733 -0.13486952
0.034163058 -0.26286542 -0.11800962 -0.12394503 0.040670473 0.19496557 0.096531264 -0.09765637
-0.0510139 0.15828139 -0.13989757 0.1496869 0.19862486 -0.34311968 0.035228368 -0.049545422
-0.035974752 -0.23208888 0.37395287 0.014874725 0.52853084 0.05154438 -0.040523678 -0.04738444
-0.18936028 -0.1100121 0.23634921 0.10019356 0.17633332 0.083877146 -0.21730287 0.00782802
0.018162236 0.0145962015 0.07274725 -0.2056053 0.009850458 -0.028701693 -0.40539598 -0.049946163
0.061948225 -0.17723677 0.24555689 -0.3279257 0.13003556 0.10684211 -0.43574116 -0.008964645
0.113473244 -0.12964317 -0.071132936 -0.20557469 -0.15328808 0.1340852 0.2678027 0.105867185
0.088315636 0.112169914 0.28125566 -0.073006965 0.18273303 -0.17770147 0.05928113 -0.021049941
-0.030596312 0.0120394025 0.08449444 -0.14909562 -0.12274382 -0.24635187 -0.059813473 0.152954
0.028927244 0.24673042 0.06385508 0.14935091 -0.04039771 0.13686992 -0.17655705 -0.070435986
0.053147417 0.07399972 0.082090236 0.106081635 -0.017186882 0.3257562 0.19689125 0.18000081
0.069434814 0.027186686 0.420761 0.03271296 -0.18553188 -0.1498561 0.030372236 -0.18028007
0.1398998 -0.22671811 0.29203436 0.20330662 0.022152174 0.3656216 -0.06455205 -0.038044747
0.20275153 -0.2799994 -0.026514161 0.1928867 -0.0011536223 0.105728224 0.026313026 0.044648834
0.22100984 0.13854672 0.2852104 0.18108524 -0.036649406 -0.09191423 0.12773527 -0.17557888
-0.1674145 0.23913532 -0.10386777 -0.04941608 -0.026425269 -0.1720093 -0.14772953 -0.18407638

lstm.weight_hh_l0 f4 [512, 128]
00000000: 6492 213d 777e fabd af0d b8be 5b66 1cbe
00000010: 7db1 dfbd a892 84be eec1 ba3c b827 9fbe
00000020: f37d 26bf 59b7 adbe 50a9 69bd fb1a ce3d
00000030: b599 8dbd 6424 d8be a046 7e3e 3ed2 d83e
00000040: 4e3f d2be a2d4 e83d 17e3 9f3e 6bbb cdbe
00000050: c00a d9bc fbf7 1ebd 6d85 8cbe 11d7 d13e
00000060: 2377 ef3d 5d90 3fbe c3f6 9dbe c0f8 bbbe
00000070: 78a1 903d 44ad 59be 177f 9a3e 074f 903e
00000080: 47d2 8bbe 2d07 7e3e 980d 9ebc 8828 de3d
00000090: 230a f7be 0221 8d3e bc8b c1be 2d61 dd3d
000000a0: 451e aabe e362 c8bc f691 dd3e 620a c3bb
000000b0: f350 8bbd 8bd8 72be 0766 85bd 2997 3fbe
000000c0: 4aee de3e f5bf b73c 35d1 c6bd 99a5 86bd
000000d0: bea2 243e 9575 e13e 7ea4 02be 8870 02be
000000e0: ce05 f8be ff50 bc3c abd4 b8bd f3a0 aa3e
000000f0: 12a5 123e 6351 313e 7525 a4be 8ec1 fd3e
00000100: 1c35 e43d 5ced 363f 3f81 02bd 48b9 ae3e
00000110: 814b 8dbe 5bcc d43c 5429 183f ca88 1f3f
00000120: 37fe b7be ae41 bd3e 854d 123e 5165 ae3d
00000130: e7b9 87bd 151d c23e 6baf 253f bffd 97bd
00000140: 028f 99bd d92f 49be c625 033f 27c4 f8be
00000150: 3a29 1a3e d097 193f d13b 723e a554 94be
00000160: 5c92 373e b787 a53e acfd 043f 516e edbe
00000170: 7194 713e 49c5 993c c896 193e 4619 c3be
00000180: 6e1d 03bf fea1 013f 8e23 ecbe 7eb1 42bd
00000190: d5ee 393f f4fd b1bd 5771 25be f4b4 30be
000001a0: 8312 7ebe 505e e93d f2a5 2cbe 7ee8 66be
000001b0: 80f7 253e 48f6 bf3e 4aab 283e e482 b13b
000001c0: c771 9c3d 62bf 69bc c390 3dbd 10bd e2be
000001d0: 1162 d53d 3909 53be 301f a53d 18a8 acbc
000001e0: dcab 5abe 9158 973d a0e2 593e 3bef 79be
000001f0: 74d7 b53e 084a 763e df55 68be 8717 c9be
00000200: aa8e 7a3e 010b 6bbe 20cb c6bd 9e3d 0ebe
00000210: e294 a5bd 948e 09be 6f26 683e 86cb 3e3d
00000220: c84b fbbe 3db8 973d eb9a bbbe d691 ebbc
00000230: 2da4 7dbe 2f82 b63d e442 213e 313b 0d3d
00000240: 75cd 07bc 312c 1b3e b41d 103e 8c26 a0be
00000250: ecc0 c0bc 35d7 54bd c0f8 683e 9455 e13d
00000260: 9739 abbe 6c9f 42be ec24 27be 8239 19be
00000270: ad14 f63e ad8b e43d c862 803d cf01 bcbd
00000280: be4f 9fbe 83f0 79bd 2113 873d 7ba2 eabd
00000290: 6cee ad3d c161 033e b46c 0e3f d012 f2bc
000002a0: d0f4 2a3c 0454 a9be 9426 923d daef 11be
000002b0: 69b6 db3c a30e 38bd c70a 06bd b89a 7fbe
000002c0: ba72 c0bd 38f3 b33c 8e55 9abe 71ef 3c3e
000002d0: e207 183e 5b43 7c3e a422 c7bd 3830 f039
000002e0: 80a8 753e c9f0 193e a8d2 8c3d 672a 83bc
000002f0: 20d6 76be 7bd4 833d 5246 903d 010d 32bd
00000300: c309 12be afd0 28bd cd11 a1bd 7bc2 f33c
00000310: d0ce 56be fb48 7d3e 8b1b fc3d bf8e 6a3e
00000320: a457 a8bd 95c6 79be 0d3b bfbe 636f 093f
00000330: 12a7 993c 7d40 413d 8526 a73e 80cb e33d
00000340: 5ab1 91be 7143 d9be a728 f1be fd6c bcbd
00000350: abd1 ea3e b55c d33d ce60 09be 917e b6be
00000360: 8ddf c4be c126 c0be 3252 b8bd eda6 c8be
00000370: 5068 113e 8f1b 10be a1c8 9b3e 7884 a4bd
00000380: c277 e0bd 56b1 333f 9beb 343e 7a77 b2bd
00000390: e572 143d e457 5c3c e779 853e c54e e23d
000003a0: 6f64 cfbb 0baf 283e a696 e33e 791b fd3d
000003b0: 1ded 923e 596d 8a3c f505 7cbe 8c23 713e
000003c0: 8344 fbbd d10e bd3e 43b0 61be a924 1f3e
000003d0: f96b 2ebe b79d e8be 46b1 0a3e 8b8a 633e
000003e0: 8419 ccbd c0a9 153e 11cd e9bc 08ec cabd
000003f0: a123 be3c 07d0 e73d f7ee ce3d e946 6c3e
0.03944625 -0.122311525 -0.3594794 -0.1527342 -0.10922525 -0.2589314 0.022797551 -0.3108499
-0.65035933 -0.33928946 -0.057046235 0.1006374 -0.06914083 -0.42215264 0.24831629 0.42347902
-0.41063923 0.113686815 0.31227943 -0.4018205 -0.026494384 -0.03881071 -0.27445546 0.40984395
0.116926454 -0.18707414 -0.30852327 -0.3671322 0.07062048 -0.21257502 0.30175087 0.28185293
-0.27308866 0.24807425 -0.019293591 0.108475745 -0.4824992 0.27564245 -0.3780192 0.108095504
-0.3322622 -0.024461215 0.43275422 -0.0059521655 -0.06802549 -0.23715417 -0.06513601 -0.18710007
0.43541175 0.0224304 -0.09707872 -0.06574554 0.16077706 0.4403502 -0.12758061 -0.1273824
-0.4844193 0.02298784 -0.09024938 0.3332592 0.14320782 0.17316203 -0.32059827 0.49561733
0.11142942 0.7145593 -0.03186154 0.34125733 -0.27596667 0.02597635 0.5943806 0.623181
-0.35936138 0.36964172 0.14287384 0.08515418 -0.06627255 0.37912813 0.6472079 -0.07421445
-0.0749798 -0.19647159 0.5122951 -0.48587152 0.15054789 0.5999727 0.2365563 -0.2897083
0.17926925 0.32330105 0.5194957 -0.46373227 0.23591782 0.01877083 0.14998925 -0.3810522
-0.5121678 0.50637805 -0.46120876 -0.04753255 0.72630054 -0.08691016 -0.16156517 -0.17256528
-0.24811749 0.11394942 -0.16860178 -0.22549626 0.16207695 0.37492585 0.16471592 0.0054172147
0.07638889 -0.014266821 -0.046280634 -0.44284868 0.10419095 -0.20608987 0.08062589 -0.021076247
-0.21354622 0.073899396 0.21277857 -0.24407665 0.3551594 0.24051678 -0.22689007 -0.39275762
0.24468485 -0.22953416 -0.09706712 -0.13890693 -0.08085038 -0.13433295 0.22670911 0.046580814
-0.49081254 0.074081875 -0.3664163 -0.028756063 -0.2476966 0.08911549 0.15748173 0.034480277
-0.008288731 0.15153576 0.14073831 -0.3127941 -0.023529492 -0.05196305 0.2275114 0.11002651
-0.33442375 -0.19006127 -0.16322678 -0.14963344 0.4806265 0.111594535 0.06268841 -0.091800325
-0.31115526 -0.061020385 0.065954454 -0.11456772 0.08492741 0.12830259 0.5563462 -0.029549986
0.010434344 -0.3307191 0.071362644 -0.14251652 0.026820378 -0.044935834 -0.03272512 -0.24961364
-0.09396882 0.021966562 -0.30143398 0.18450715 0.14846757 0.24635069 -0.09723404 0.00045812293
0.23990059 0.15033258 0.06876117 -0.01601143 -0.2410512 0.06437012 0.070446625 -0.043469433
-0.14261536 -0.04121464 -0.07864723 0.029755821 -0.2097733 0.24734871 0.12309941 0.22906016
-0.08219841 -0.2439216 -0.3734974 0.5368559 0.018756423 0.04718064 0.32646576 0.11122799
-0.2845562 -0.42434266 -0.47101328 -0.09200475 0.4586309 0.10320417 -0.13415834 -0.35643438
-0.38451806 -0.37529567 -0.090000525 -0.39189854 0.14199948 -0.14073013 0.30426505 -0.08033079
-0.10960342 0.7019247 0.17668001 -0.087141946 0.036242384 0.013448689 0.26069567 0.1105018
-0.0063291113 0.16473024 0.44450873 0.123587556 0.28696528 0.016897844 -0.24611647 0.23548716
-0.12268927 0.36925367 -0.22039895 0.15541328 -0.17033376 -0.45432827 0.13544187 0.22220819
-0.09965804 0.14615536 -0.028540166 -0.09908301 0.023210349 0.11318975 0.10104173 0.23073925

lstm.bias_ih_l0 f4 [512]
00000000: 5576 4bbc 8f79 98bc 083c 37bd 19c4 06bd
00000010: c02e a6bd a706 4f3d 423b b6bd f619 37bd
00000020: 986a d53c 1d07 3b3e 2c3c d83c edc6 e33d
00000030: e60a a1bd a37a 0f3e b235 1a3d 4486 86bd
00000040: 4e67 823c 02a4 023e 27a7 ccbb 00e7 4b3e
00000050: 5598 a1bd 6db0 a0be d70a 473d 5132 13be
00000060: 6050 173d b96c 9dbe e7d5 2a3e 688a 03bd
00000070: e83f 9a3a 7cc4 92bc 866e b83d 86c6 79bc
00000080: 2e37 083e 6332 063e e43a 113e c891 35be
00000090: 3313 693e 57e5 f73c 67cd 593e 744a b33d
000000a0: 027c 173d c92d b13d 6777 163e 7cc3 1dbc
000000b0: 0abc c63d 23d3 bc3c f0a9 653d 6f92 493e
000000c0: 4a99 263d b3d2 88bd 93dd 2cbe 7d3d febd
000000d0: f0b5 e4bc c6ce 93bc 9958 7cbd e7f8 1d3e
000000e0: 8d26 0cbe a237 043e 4c39 c939 d41d fcbc
000000f0: 8b6d a1bd 23e9 8c3e 29af 743d 1b42 403e
00000100: b5a3 e13c 4d1e 703d 6eea b23d a212 0c3d
00000110: 07d0 ef3d 03bb a53c bb0b 343d 08cb 033e
00000120: 80c5 783c 9b22 06be a272 44bd 50a2 813d
00000130: af54 363e 09ae 143d 5262 063e 0051 0cbd
00000140: dc9b 133d 4d6b 8e3d 773a 22be 838b 063e
00000150: 3009 5abe b2e8 083e 4b4b 51bd 3bcc 853d
00000160: 7e47 c2bb 15f9 063e 6240 143d 2edb 433e
00000170: 0057 e53b 7c29 acbd 9892 a4bc f63a 163e
00000180: b76c 133e 117e f4bc 7962 36be d1b2 3cbe
00000190: 29d7 a5bd 1458 26be 3ee5 0e3d 8e20 433d
000001a0: 1d9e 063e 882b 62be 8956 46bd a383 03bb
000001b0: 8aff 54bc 94be 5abd 9341 7c3e 7248 033e
000001c0: 94fb c83d 3ed4 a1bd 557c ca3d bdbc 92bc
000001d0: b7e2 85bd 4442 eb3d d296 9e3d 3e5d 193e
000001e0: 3cb8 5e3d 80df 12bc e490 063e 058e f43d
000001f0: 4650 4a3d a2c2 14be 2c13 30bc 049d 8ebd
00000200: a50e 7bbe 8791 6bbd 7536 83bd df51 143d
00000210: 911e 533e c37e b03d f7ec 72bc 8b71 b63d
00000220: fa50 d8bd 49a3 12bc 0d9a 973d 6538 e93b
00000230: 6a13 d13d de45 883e 75bd 07bd efd8 33be
00000240: 091e ac3c 04f3 8c3d 36b4 903d 24ff c63c
00000250: a9be ef3d d89f ccbc 7cf9 273e 875b a9bc
00000260: 40de bc3d 9a53 be3d 8128 20bd f054 833d
00000270: 732a 0bbd 8cc4 c53d 4509 2f3e c440 ccbd
00000280: 8cc4 f23d 55c2 543e a9fd 1bbe 4b82 93bd
00000290: 7cfb 3fbc fbe1 9b3d cc4a 183d 5c52 d4bd
000002a0: 47a3 c4bc d64f 053e 8160 b33d b8e8 3f3e
000002b0: 3c49 19bc dc2d c73c 8336 8dbd f336 c83d
000002c0: 02ed ea3d 218f 803d 5150 d53c 0542 003c
000002d0: 0ce2 cfbd eeb9 9e3e 515a 8a3b 7098 383e
000002e0: 4aba 223e 859e 74bd e332 63bd 6c76 ba3d
000002f0: 7094 ee3d 84ba 903d 98af e6bd ce71 afbd
00000300: b75f f63d 8fbd b73d ab62 2f3d 32a8 ac3d
00000310: 46dd a93d 589a 77bc 883b b1bc d562 223d
00000320: 9b70 b8bd 6957 063e 155c 0fbe 77b4 1bbd
00000330: 6958 c3bc f716 703d cb2d 733d 53ff d23d
00000340: 076f 7c3e f0f6 083d f51f 913d a151 763d
00000350: 3b86 353d 1f09 b9bd a55b fd3c 289d ab3d
00000360: f08f a03d a37e 083e 45ce 1c3e 2789 f93d
00000370: 4bdb 493e 5bd5 dcbd 3260 023d 64b1 09bd
00000380: af58 9a3d 8a9c 8d3d c380 4abd b8f7 bfbc
00000390: e0c6 4d3e ed43 16be cfef 023e 7cff f5bd
000003a0: 012f 5a3d a525 2b3e b8b9 46bd f46b 20bd
000003b0: dff1 dfbb 4095 373d 523d 373e ccdf 80bd
000003c0: 666f 173e 73f0 1d3e 0eae 2dbd dc38 b2bb
000003d0: f7f8 cebd 88d1 94bd 8b53 e13d 93b9 3b3e
000003e0: d6d8 363d e7aa 043d ed98 1a3e 1f33 cabc
000003f0: 2796 893d 9efb 263e 2d4a 933d 4744 e53d
-0.012418349 -0.018612651 -0.044734985 -0.032901857 -0.081143856 0.050543454 -0.08898021 -0.044702493
0.026051804 0.18264432 0.02639588 0.111219265 -0.07863407 0.14011626 0.037648864 -0.06568578
0.0159184 0.12757877 -0.006245512 0.19912338 -0.07890383 -0.31384602 0.048594322 -0.14374663
0.036941886 -0.3074701 0.1668316 -0.032114416 0.0011768313 -0.017915957 0.09005456 -0.015245086
0.133023 0.13105159 0.14182621 -0.17731392 0.2276123 0.030260725 0.21269761 0.08754435
0.036983497 0.08651311 0.14693986 -0.009629127 0.09703834 0.023049897 0.05607027 0.19684766
0.04067353 -0.06680813 -0.16881399 -0.12414072 -0.027918786 -0.018042933 -0.06160793 0.1542698
-0.13686581 0.12911847 0.00038380397 -0.030775942 -0.07882222 0.2752162 0.05973736 0.18775217
0.027543882 0.058622647 0.0873612 0.034197457 0.117096 0.020230776 0.0439565 0.12870419
0.015183806 -0.13099138 -0.047960885 0.06329787 0.17805742 0.036298785 0.13123444 -0.034256935
0.03603731 0.0695406 -0.15842615 0.13139157 -0.21292567 0.13370016 -0.051097196 0.065330945
-0.0059289327 0.13180955 0.036194213 0.19126579 0.0069988966 -0.0840635 -0.020089433 0.1467093
0.1439694 -0.02984527 -0.17811002 -0.18427588 -0.08097679 -0.16244537 0.03488659 0.04763847
0.13146253 -0.22086918 -0.04842237 -0.0020067475 -0.013000378 -0.053404406 0.2463439 0.12820604
0.0981361 -0.0790181 0.09886996 -0.017912263 -0.06537383 0.114872485 0.077436104 0.14976975
0.05437492 -0.008964419 0.13141209 0.119411506 0.04939296 -0.14527372 -0.010746758 -0.06963542
-0.24517305 -0.057511833 -0.06406871 0.03621089 0.20617129 0.08617928 -0.014827005 0.08908375
-0.1056232 -0.008950063 0.0740243 0.0071173185 0.10208781 0.26615804 -0.033139665 -0.17563222
0.021010416 0.06882289 0.070656225 0.024291582 0.117062874 -0.024978563 0.16403764 -0.020673526
0.09222078 0.092932895 -0.039101128 0.06412685 -0.03397603 0.09656629 0.1709338 -0.099732906
0.118538946 0.20777257 -0.15233482 -0.07202586 -0.011717673 0.07611462 0.037180707 -0.10367271
-0.024003638 0.13018736 0.08758641 0.18741119 -0.009355839 0.02431386 -0.06895163 0.09776106
0.11470987 0.062773 0.026039274 0.00782824 -0.10150537 0.31001228 0.0042221923 0.180269
0.15891376 -0.05972149 -0.05546845 0.091046184 0.11649406 0.07066825 -0.112639606 -0.085666284
0.12029975 0.08971702 0.042818706 0.08430518 0.08294158 -0.015112482 -0.021634832 0.039645035
-0.09005853 0.13119282 -0.1399997 -0.0380139 -0.023845868 0.05861565 0.059369843 0.103026055
0.24651729 0.033438623 0.070861734 0.06013644 0.044317465 -0.09034943 0.030927489 0.083795846
0.07839954 0.13329558 0.1531306 0.12184363 0.1971256 -0.10782882 0.03183002 -0.03361644
0.07536446 0.06914623 -0.049439203 -0.023433551 0.20095396 -0.14674349 0.12786792 -0.120116204
0.053267483 0.16713579 -0.04851696 -0.039165452 -0.006834253 0.04482007 0.17894486 -0.06292686
0.14788589 0.15423755 -0.04240232 -0.005438907 -0.1010608 -0.072665274 0.11002263 0.1833251
0.044640385 0.032389548 0.15097399 -0.02468258 0.067180924 0.16306922 0.07191882 0.111946635

lstm.bias_hh_l0 f4 [512]
00000000: a685 37bd 184c 80bd f550 9f3c 6ca4 28be
00000010: 98e6 08bc ed8e b4bd 62f1 4ebd e6e9 0fbc
00000020: 8efb ed3c 816d b33c f8f9 063e 8e4e a5bc
00000030: 70da 313d c31e 9d3d f761 313e 55b4 743d
00000040: 0e7d e8bb e678 253e 110e ad3c 6b57 4e3e
00000050: eac1 a9bd d2f4 84be 6567 84bc db6a a4bd
00000060: bbf4 5b3d 22aa 91be afbd 003e f4f6 353c
00000070: 4014 ddbb cb24 ce3c e32c 3abd 2947 3ebc
00000080: cbef 453d 30db 4d3e 79b4 0c3e a366 2cbe
00000090: 3e90 933e 901b 19bc bf3a 293e a00b 5abd
000000a0: 0df7 7e3a e286 ca3d 1cd1 6a3e 69ab 443d
000000b0: a337 bcbc 4d9c 903c 7a4d b43c 8061 0d3e
000000c0: e0bd d63d 8d71 1fbd b441 a6bd 83a5 0abe
000000d0: afee 483d 0e31 183d 9950 87bd ee04 193e
000000e0: 2d0a ffbd 7c47 043e 6e97 6f3d 005b 833c
000000f0: b446 14be 239d b43e 2dfb 05bc 3523 c43d
00000100: e0d9 373e d746 083e b55e 50bc f099 cb39
00000110: e7b6 d23c 425b eabd eb41 6c3d ce08 123e
00000120: b701 bebd 909d bfbd 5b00 c2bb 8b62 873d
00000130: f09b 563e 8ea1 a5ba 4589 23bc 7749 2dbd
00000140: 5a61 c43c 1970 533e bc31 0bbe d60c a83c
00000150: d1b9 17be cc06 243e a0df e83d fc36 8c3d
00000160: b871 7f3d 8301 1c3e dd57 d63d dddc 543e
00000170: 1bf6 c23c c51a 0fbe b862 533c d59a 023e
00000180: 738e a63d 41c8 34bd 0065 25be 65ca 30be
00000190: 9e6c 4b3d e677 41be d07d 843d 2c84 03bc
000001a0: 1c1e bdbc a3d1 cfbd b1eb 633d b83d f43d
000001b0: a42a bd3d 437b 0f3d fef2 283e 8645 073e
000001c0: 60dd 953d 1289 babd ed0a 513e 1cde 14be
000001d0: 098a 31be cd3f df3d 78a7 393d 696a 293e
000001e0: b87d c03d 1d12 88bd 8977 d53d a4b1 d9bc
000001f0: d02d 8dbc 6d75 2abe b5fc f5bb cd2f a8bd
00000200: 5deb 86be c08c c5bd 4e56 28bc 5383 273e
00000210: b0d7 263e bd5e 233e ce3b 64bc 4e61 1f3e
00000220: 787b 4ebe 5f8b d53d 1e14 543d 4e7c 05be
00000230: e63b 6b3d c400 243e d014 df3d fc57 f6bd
00000240: b081 363d 8a87 593d 405e a73d d85c 1a3e
00000250: 33de b83d 8e7e b53d de9a 683e 35cb 8abd
00000260: a2f5 273e 4472 063e 82a2 16be d53f 1c3e
00000270: d7db cdbd 0ed7 afbc ccab ce3d d3f6 8abc
00000280: 33e3 b13d ba27 b63d 4abb 41be 109b c4bd
00000290: d577 ca3d fdcb cf3d d0e7 1c3d 611c 09be
000002a0: 2416 7f3d 0436 953c cb33 c63d d574 b63d
000002b0: fd3f bfbd a849 363c bdb4 ddbd 3a94 dd3c
000002c0: 1973 223e b973 123e b299 0f3e c02f 6b3d
000002d0: 9787 52bc 8df5 a23e 8b09 cd3c 8e3a e43d
000002e0: 18c6 223e 43e1 a5bc 90d0 df3d 0dfa 0e3e
000002f0: e80d 7f3e aa41 6cbb 420c 2f3d 1a1a bfbd
00000300: 39d7 cb3c 3976 253e 9987 e73b e9da 003e
00000310: de0c 193e ce8c 123e ab33 5abd 6c24 273e
00000320: 4817 d1bc 99e4 453d 9daf 96bd 4e8e 8ebd
00000330: bf98 583d 57e6 c93c 45ae eb3d d043 3d3e
00000340: 0932 803e 2a32 94bd bf25 9b3b faa4 c83d
00000350: 74d5 9b3c 68f8 c7bb cddb d8bd 3edf 6d3d
00000360: d5e4 99bb 66a4 0a3e 700b 043e d7e6 353e
00000370: ee70 e13d fd17 a6bd 71a1 d73c 0ac5 023c
00000380: 4c3a ae3c 08ac 98bd 0f29 713d efb5 8c3d
00000390: a614 2a3e d70c 15be f191 263e 2288 6fbd
000003a0: fe68 023e abdd 213e d610 813d 6925 abbd
000003b0: 617b 073e 337b c8bc 3f15 2f3e d03e 183d
000003c0: 328a 193e 8b36 be3d 31fb 8abc 755c 73bb
000003d0: baea 04be f1ef 0abe b3a1 e03d 0249 813e
000003e0: bb72 bb3c d623 473e 5cec 853d e4ac 43bd
000003f0: 5cb8 cd3d c4b1 243e 252c fd3d 9c54 243e
-0.04480519 -0.06264514 0.019447783 -0.16468972 -0.008355759 -0.088163234 -0.05052317 -0.008783793
0.029050615 0.021902801 0.13181293 -0.02017906 0.04342121 0.07671883 0.17322527 0.05974229
-0.007094986 0.161594 0.021124871 0.20150535 -0.08288939 -0.25968033 -0.016162584 -0.080281936
0.05370019 -0.28450114 0.12572359 0.0111062415 -0.0067467988 0.025164029 -0.045452964 -0.011613646
0.048324388 0.20103145 0.1374072 -0.16836028 0.28820986 -0.00934495 0.16526316 -0.053233743
0.00097261445 0.09889008 0.22931331 0.048015032 -0.022975748 0.017652655 0.0220096 0.13806725
0.104854345 -0.03892665 -0.081180006 -0.135397 0.04905575 0.037156157 -0.0660717 0.14943287
-0.12453113 0.12917894 0.058494024 0.016034603 -0.14480096 0.35276136 -0.008177561 0.09577028
0.17954206 0.13308273 -0.012717892 0.0003883387 0.02572198 -0.11443187 0.05768005 0.14261171
-0.09277671 -0.093562245 -0.0059204525 0.066105925 0.20957923 -0.0012636648 -0.009981458 -0.04230639
0.023972202 0.2064823 -0.13593191 0.020513933 -0.14816977 0.16018218 0.11370778 0.06846425
0.06236431 0.15234952 0.10465977 0.20787378 0.023798993 -0.13975056 0.012901954 0.12754376
0.08132639 -0.04413629 -0.1615181 -0.17264707 0.049664132 -0.18893394 0.06469309 -0.008027118
-0.023085646 -0.10147407 0.055644695 0.119258344 0.09236649 0.03502966 0.16498944 0.13210115
0.073176146 -0.09108175 0.20414324 -0.14537853 -0.17337812 0.10900841 0.045325726 0.16544499
0.09398979 -0.0664408 0.1042319 -0.026573963 -0.01723376 -0.16646357 -0.0075069317 -0.08212242
-0.26351443 -0.096459866 -0.010274483 0.1635869 0.16293216 0.15954109 -0.013930274 0.15564463
-0.20164287 0.104269736 0.051776998 -0.130357 0.05743017 0.16015917 0.108926415 -0.120285004
0.044557273 0.053107776 0.08172274 0.1507448 0.09026756 0.08862029 0.22715327 -0.0677704
0.16402295 0.13129526 -0.1471043 0.15258725 -0.10051697 -0.02146485 0.100913614 -0.016963398
0.08685913 0.08894296 -0.18919101 -0.09599888 0.098861374 0.101463296 0.03830701 -0.13389732
0.062276974 0.018214233 0.096778475 0.08909003 -0.09338377 0.011125959 -0.10825489 0.027048219
0.15864219 0.14301957 0.14023474 0.057418585 -0.01284971 0.31827965 0.025028965 0.11143981
0.1589588 -0.020249015 0.10928452 0.13962574 0.24907649 -0.003604988 0.0427363 -0.0933115
0.0248829 0.1615838 0.007065725 0.12583508 0.14946315 0.14311525 -0.05327193 0.16322488
-0.025523797 0.04831371 -0.07357714 -0.06960736 0.052880045 0.024645967 0.11507849 0.184829
0.25038174 -0.072361305 0.0047347243 0.09797092 0.01902268 -0.0061026104 -0.10588799 0.05807423
-0.0046964684 0.13539276 0.12894988 0.1776384 0.11007868 -0.08110044 0.026322098 0.007981548
0.021268032 -0.07454687 0.058877047 0.068706386 0.16609439 -0.1455568 0.1626661 -0.058479436
0.12735364 0.15807216 0.06302039 -0.08356745 0.13230659 -0.024472808 0.17097948 0.037169278
0.14994124 0.09287747 -0.01696548 -0.0037133966 -0.12980166 -0.13568093 0.10968342 0.25251013
0.022881856 0.19447264 0.065392226 -0.047772303 0.100449294 0.16083437 0.123619355 0.16047901

lstm.weight_ih_l1 f4 [512, 128]
00000000: 8e57 5c3c 1fa3 0d3d c895 e13d c095 813e
00000010: ec3a f33b 93c8 503b e1b8 3dbe 471d e53c
00000020: 7b89 583d b312 a43d aef8 99bd bae0 1d3e
00000030: b752 6abe 6950 c7bd ce27 5dbc e9e4 1bbe
00000040: 6156 2d3e 2729 c8bd 2925 473e 54b1 57be
00000050: d53e 6cbe 8979 46be f61e 14be f4b3 893e
00000060: 7fd9 e23d 9c0a ebbd fccc c0bd ba17 83bd
00000070: efb0 0b3d 09d4 acbd 66f8 393e 9c22 adbc
00000080: 0d03 30bd c2d8 bc3d 0698 2a3d 044d 43bd
00000090: 67ca 773d 3381 de3d acfb a23d 3366 96bc
000000a0: e02a ca3a cf97 1a3e 22e2 0cbb 1c04 82be
000000b0: a00b 3f3d 0abe 233e c323 1b3d 4a8f eebd
000000c0: adc0 05be ef1a 74bc 568c c23d 91d7 043d
000000d0: 75b8 b73d f6ef ddbc b609 123d 4d62 7b3c
000000e0: 187c f7bd f060 a23d 2928 b1bd 4e35 3f3d
000000f0: 391c 9abe 2afd 7a3d 77b9 b6bd 7cd8 7ebd
00000100: 6d63 4abc 1440 cc3d 6cf0 a3bd ff62 863c
00000110: e6b3 9cbd 34f9 47bd 709f 9f3c 8f14 21be
00000120: 6c2a 22bc 0911 b13d c62f 3abc 686f 0abe
00000130: fddd fe3d ea58 e4bd dac9 d03a c97d 423e
00000140: 9c10 683d 0ce2 3ebe 62e4 3b3e 11cd b93d
00000150: 75ce 703d 7ff4 e83d f391 82be baae e13d
00000160: 00df 393d 6cfa a2bd 0b82 0e3e 3b20 9bbc
00000170: 0b19 8fbd bc4c 873d 855d 5f3e fa16 8abd
00000180: 5aec 13bd cd82 693e 318b cf3d 4be0 cb3d
00000190: f852 a0b8 e1e6 0d3c 2f50 003d 733e a5bd
000001a0: 7fdf 3e3e 19b0 003e 7fd7 92bd ea3e 90be
000001b0: ff12 4fbd 7e5b 303d b64e cabc ecdf af3c
000001c0: 9cfd 4c3d 31b8 80bd 42f0 acbc 732c d43d
000001d0: e9c6 963d 6157 ed3d ccae 7a3d defc c73c
000001e0: 1792 98bd e7cf f9bb 2685 013e 439c 1dbd
000001f0: c4fa 813d 2904 cebd 5bc6 e9bd 362a 893d
00000200: f8e7 28be 4723 833d 7429 f03d c84a be3d
00000210: a60a f9bd 8eff d0be cdd1 16bb 2440 c2be
00000220: 7ddb 12bd ad06 57ba 6410 22be 077d cf3d
00000230: 3b63 4a3d 293a d4bb f0f2 23be ca75 953d
00000240: dcbb 313e 8474 55bd 54ca 23bd 938b 61bc
00000250: be3a 47be f0d4 72be 6c0e 24be 98f0 8a3e
00000260: ecf4 4a3e 4620 53be 2fdf 82bd 0850 32be
00000270: 386e 68be 0930 21be e49f 28be 34e6 08be
00000280: 4636 4ebd 515b 373e 93a7 df3d 6dfe a73c
00000290: d463 42bd 8e4b e0bd f567 11bd 8d6f 86be
000002a0: 01ce f8bd 2247 173e af8b 003e 0a7c bcbe
000002b0: dc0d 533d 89bc 9c3e 68f1 743d 1afa d53d
000002c0: de7e 0a3e eed6 163e a2b3 c13e 597e b3bc
000002d0: 4d15 0a3e 3cb9 c63d e6dc 1dbe 12af 943d
000002e0: 8224 ac3c d2c9 dfbd a258 473e 7d3b c53e
000002f0: 9189 e1bd 8163 8f3c a57d 3ebd 1a4a de3d
00000300: d0e0 943e fbde 80be 9caa 2a3d 0ee4 343e
00000310: edef c1bd b801 453e 580b 0bbe 1724 1b3d
00000320: f703 a43d 8267 683e 254c fcbc c125 52bd
00000330: d341 303e b043 d33c 27c9 143e 72fb 8e3e
00000340: d1cb 7d3e 029b 25bb 0934 8b3c 6dee 01bc
00000350: b019 77bd 2c44 b53c 0590 03be af62 49be
00000360: 03eb 0c3e 2631 a8bd 8052 fc3d 1a15 143e
00000370: 0139 a7be ecb8 aebe 6cc7 c13e 322b 63bd
00000380: a3ef 68bd 3a36 263e d255 3f3e 2396 dc3d
00000390: 514c 533e f700 49be 2a88 743e 298e 013e
000003a0: 10ae 933d ac51 833e ab0f 7e3c d34d afbd
000003b0: 131a a8bd 43ce 4d3d 9f48 80be 4fd4 e93d
000003c0: 70bc 7c3e 9f51 0bbe 5085 863d 3c1b 4cbd
000003d0: 012c 403e 2220 dbbd 1444 ef3d daf5 8cbd
000003e0: 936c edbd af5e 96bd 9a1f cebd bab5 e33d
000003f0: db9d ab3d 1e24 993e 5bd7 82be 7772 edbd
0.013448609 0.034579393 0.11014897 0.25309563 0.0074227955 0.0031857833 -0.18527557 0.027968062
0.052865487 0.08011379 -0.07518135 0.15417758 -0.22883116 -0.09732134 -0.01349826 -0.15224041
0.16927482 -0.09773474 0.19447769 -0.21063739 -0.23070844 -0.193823 -0.14464936 0.26895106
0.1107664 -0.11476633 -0.09414098 -0.0640101 0.034104284 -0.0843888 0.18161163 -0.021134667
-0.04297166 0.09221031 0.041648887 -0.04768087 0.06049576 0.108644865 0.07958159 -0.01835928
0.0015424155 0.15096973 -0.002149709 -0.2539376 0.046641946 0.15990463 0.037875902 -0.11648424
-0.13061781 -0.014899 0.09499423 0.032432143 0.08970729 -0.027091961 0.035653792 0.015343261
-0.12084216 0.079286456 -0.08650238 0.046681695 -0.30099657 0.061276592 -0.08922093 -0.062218174
-0.0123528065 0.099731594 -0.08004841 0.016404627 -0.076515004 -0.048821643 0.019485205 -0.15730499
-0.0098978095 0.08645827 -0.011363929 -0.1351906 0.12444685 -0.111497715 0.0015929297 0.18993296
0.056656465 -0.18640918 0.1834884 0.090723164 0.058790643 0.11374759 -0.25501975 0.110196546
0.045378685 -0.079579204 0.13916795 -0.018936267 -0.069871984 0.06606433 0.21813019 -0.06742664
-0.036114074 0.22803803 0.101339705 0.0995489 -7.644849e-05 0.008661003 0.03132647 -0.08068552
0.18639944 0.12567176 -0.07170009 -0.28173 -0.050555225 0.043056004 -0.024695735 0.021469079
0.05004655 -0.06285132 -0.021110658 0.103600405 0.07362158 0.11588932 0.061201856 0.024412569
-0.074497394 -0.007623661 0.12648448 -0.0384791 0.06346658 -0.10059387 -0.114147864 0.06697504
-0.16494739 0.06403213 0.117266566 0.09291607 -0.12160234 -0.40819973 -0.0023013235 -0.3793956
-0.03585385 -0.0008202594 -0.15826565 0.10131269 0.04941104 -0.00647666 -0.16010642 0.07297857
0.17356819 -0.05211307 -0.039987877 -0.013766187 -0.19456002 -0.23714042 -0.16021127 0.27136683
0.19819993 -0.2061778 -0.06390225 -0.17413342 -0.22698295 -0.1574098 -0.16467243 -0.13369066
-0.050344728 0.17905928 0.10920634 0.020507062 -0.047458485 -0.10951911 -0.03549953 -0.26256981
-0.12148667 0.14773229 0.12553285 -0.36813384 0.05152689 0.3061259 0.059800535 0.10448094
0.13524958 0.14730427 0.3783236 -0.021910833 0.13484688 0.097032994 -0.15416297 0.072599545
0.021013502 -0.10927166 0.19467404 0.38521948 -0.11012567 0.017503502 -0.046506543 0.108539775
0.29077768 -0.2517012 0.041666612 0.17665121 -0.0946959 0.19238937 -0.13578546 0.037876215
0.08008569 0.22695735 -0.030798027 -0.051305536 0.1721261 0.025789112 0.14529859 0.27926213
0.24784781 -0.0025269394 0.016992586 -0.00793038 -0.060327232 0.022127233 -0.12847908 -0.19666551
0.13761525 -0.08212499 0.12320423 0.14461175 -0.32660678 -0.3412546 0.3784746 -0.055461116
-0.05686916 0.16231623 0.18685082 0.10770824 0.20634581 -0.19629274 0.23880067 0.12651886
0.07210934 0.25648248 0.015506665 -0.08559766 -0.08208098 0.050245535 -0.25055405 0.11417448
0.24681258 -0.13605355 0.06568396 -0.04983066 0.18766786 -0.10699488 0.11682907 -0.0688283
-0.115929745 -0.07342278 -0.10064621 0.11118646 0.08379718 0.29910368 -0.25554928 -0.11594098

lstm.weight_hh_l1 f4 [512, 128]
00000000: f442 e0bb 947e 4f3e 63cc 363d f9da 143e
00000010: 3151 763e f186 6cbd 183b ce3d 860a cfbd
00000020: 3bbb 79bd eef8 d23d 023d 6c3d 66f8 093e
00000030: 0d84 193d 547a 9d3d 269a fabd 458e 04bb
00000040: e6da e9bc 45a5 663d 48ba 3d3e 35ec 2c3d
00000050: bdfa ffbc 46a1 29be d1ec e7bc 1320 5c3d
00000060: c88f 373d 421b ccbb 2e8b d5bd d505 143d
00000070: 8d35 233c 0966 fcbd 2cc6 06be 0da0 983d
00000080: c904 183e beda ccbd 3c33 013e 9022 173c
00000090: 4726 343e 0d0f 75bc 9882 653e f872 c93d
000000a0: 9c2c 92bd dca7 0e3e d84e 1a3e d45c 2bbe
000000b0: 19b5 1fbd 5fe5 c03d dbbc 8ebd 201e 983d
000000c0: 7f19 b1bd 3a49 dfbd 7939 cabd 9367 293e
000000d0: 05fe bcbd e680 053e 3349 aebe d816 a93d
000000e0: 7975 14bc 96a6 85be c07f 52ba ea0c 5f3c
000000f0: e6f8 413e 9805 b13d 92db 10be 9871 37be
00000100: 31a6 a73c 9877 953c 1035 803a 0bdc 1f3e
00000110: c105 db3d b083 9e3d b194 abbe 7ae2 37be
00000120: b651 c63d fe3e 9f3d 2694 673e 00dc 133e
00000130: f6b4 2f3d 2dea b0bb 98be 383e cde9 c63d
00000140: 046c f13a b2b2 d4bd 46bc 263e 583f 65be
00000150: 8ddc aabd dd5b ee3d 6cdc 773e e2b4 64bd
00000160: db78 57bd 8f1b 1b3e 49be f93c 40aa fb3c
00000170: 6b67 cc3c 1d58 88be bfe0 aa3c 4602 183e
00000180: f6c0 b8bd fb56 95bd 5125 24be de85 8abd
00000190: 7878 c23e 3cba dc3c 433b 5e3d 73b4 fcbd
000001a0: 3526 7abd 14f6 003e 1bda cc3b f35f 1bbe
000001b0: 8924 8c3c 16f1 eebb d2a8 42bd f956 25bd
000001c0: 9a3b 073e c645 fcbd 108a 55be bbc9 c2bd
000001d0: dd0d 8f3e 2b29 fcbd 368c 00bd 9167 8cbe
000001e0: d235 8dbd 6df7 10be 8d7f a83c ebc9 0fbe
000001f0: 04e9 493d 611a 0bbb 543b 2d3e 2ae0 31be
00000200: 936a 4ebd c498 cd3d d500 3e3d 97ee 093e
00000210: 9e6c ef3d 4dde 0cbe 16cd f6bd ac47 113c
00000220: 0695 1abc 1326 d1bc a34d f93d 0347 e0bd
00000230: 5b85 f03d 5336 9a3c bced 25be d5ed 81bc
00000240: 2088 593c 521d 363e 095c 6ebd cbff 9a3e
00000250: 7758 0a3e 424b 33be 6cab c43b 23a2 413e
00000260: 160d 6bbd 801d ac3b 564c 87bd a212 583b
00000270: 78c1 72bd b715 f3bd 42a1 10bb 79d9 af3d
00000280: 7798 db3d f67e cbbd e171 ac3c cf06 a73d
00000290: 70ec 5d3e c2a3 34bd c80b 343e d6dd 843c
000002a0: 237a 91bd a15a 363d d3d8 06bd 05d1 46be
000002b0: cf3e 21be a64a 3e3e 5131 70be a82f 03be
000002c0: cc48 b3be 8ceb 143d 7f6d 48bc 5335 883e
000002d0: 5568 8ebd 930c 173e abc4 9cbe 1639 0f3d
000002e0: e3a4 033e 0289 c33a 3844 f2bc 3161 2e3c
000002f0: 3234 423e 081f 003e a686 70bd 2896 43bd
00000300: 8341 f93d 930d 683d 90a3 a33d 5f01 a3bc
00000310: 6168 693d 202c 51be 55b8 7bbe 65ba a2bd
00000320: a6c4 463e 9b93 aebd c65b 02bd 180d 6bbb
00000330: 80e1 1b3e 3c00 10be 68de 3dbd 8043 8dbc
00000340: 9be8 09be 6416 a5bd 4dd5 0b3d afff a6bd
00000350: 6110 fcbc b03a 9b3d abf2 03bd 1d07 403e
00000360: d28d e33d 0547 06be 3cf8 bfbb 8a05 8d3d
00000370: 467d 7bbc 080c 8cbe 1b04 a6bd 767e 3b3e
00000380: 32aa 4d3c a9ea 39bc d067 2fbe 1f8e 3d3d
00000390: b0e3 7e3e 7035 403e ea1d 2cbc 5bce 40bd
000003a0: 1c9b bebd c2b5 d2bd a942 9e3c 08ce a2bd
000003b0: 7a95 793d 894e 083e f280 1f3e d990 ab3d
000003c0: 171a be3d 6466 a73d edf8 b3bc 8146 64bc
000003d0: 30ec e63c 789b 103d 9c67 153d 3126 34be
000003e0: 5a1e 49be 4ab2 29bb 5553 283d 2c0d 373e
000003f0: 1b1e 703d 5d72 c73c 8237 5f3d 2854 aabd
-0.006843919 0.2026313 0.044628512 0.14536656 0.2405441 -0.057745878 0.10069865 -0.10109429
-0.060969573 0.10301386 0.05767537 0.13473663 0.03747945 0.07689348 -0.12236433 -0.00202264
-0.028546762 0.056309957 0.18528092 0.042217452 -0.031247491 -0.16565427 -0.028311165 0.053741526
0.044814855 -0.0062288353 -0.10426937 0.036138374 0.009961498 -0.12324149 -0.13161534 0.07452402
0.14845575 -0.10002659 0.126172 0.009224549 0.17592727 -0.014957202 0.22413099 0.09836382
-0.07137415 0.13931221 0.15069139 -0.1673463 -0.038991068 0.09418749 -0.06969615 0.07427621
-0.08647441 -0.10902639 -0.09874243 0.16543417 -0.09228138 0.13037452 -0.34040222 0.0825631
-0.009061211 -0.26103657 -0.00080299005 0.013613919 0.18942603 0.08643645 -0.1414626 -0.17914426
0.020464988 0.018245503 0.0009781439 0.15611283 0.10694457 0.07739961 -0.3351188 -0.17957488
0.09683554 0.07775687 0.22615108 0.14439392 0.042897187 -0.0053990097 0.18041456 0.09712563
0.0018419032 -0.10385646 0.16282758 -0.22387445 -0.08342848 0.11638615 0.24205178 -0.055836566
-0.05260549 0.15147232 0.030486243 0.03072083 0.024951657 -0.26629725 0.02085912 0.14844617
-0.090211794 -0.07291981 -0.1602986 -0.067638144 0.37982535 0.026944272 0.054255735 -0.123391055
-0.061071593 0.12593871 0.006251586 -0.1517332 0.017107265 -0.0072919233 -0.04752428 -0.040366147
0.1320633 -0.12317996 -0.20853448 -0.09511133 0.27940264 -0.1231254 -0.031383716 -0.27422765
-0.06895031 -0.14156885 0.020568633 -0.1404187 0.049294487 -0.002122544 0.16917163 -0.17370668
-0.050394606 0.10038903 0.046387512 0.13469921 0.11690639 -0.13756676 -0.12050836 0.008867186
-0.009434944 -0.02553085 0.12173011 -0.109510444 0.117441855 0.018824732 -0.1620397 -0.015860477
0.013277084 0.17784622 -0.05819324 0.3027328 0.13510309 -0.17509177 0.0060018804 0.18909506
-0.057385527 0.00525254 -0.06606357 0.003297009 -0.059266537 -0.11869376 -0.0022068773 0.085864015
0.1072244 -0.09936325 0.021050395 0.081555955 0.21672225 -0.044101484 0.17582619 0.01621906
-0.07103374 0.044520024 -0.032921623 -0.19415672 -0.15746616 0.18583164 -0.23456313 -0.12811148
-0.35016477 0.036357448 -0.012233137 0.26603183 -0.069534935 0.1475089 -0.30618796 0.03496655
0.12855868 0.0014918151 -0.029573545 0.010643289 0.18965223 0.12511837 -0.05872216 -0.047750622
0.121706985 0.05665357 0.079901814 -0.019898115 0.05698431 -0.20426989 -0.24582036 -0.07945708
0.19410953 -0.08524247 -0.031825803 -0.0035865959 0.1522274 -0.1406259 -0.04635468 -0.0172441
-0.13467638 -0.08060911 0.034138966 -0.081542365 -0.030769529 0.07579553 -0.032213848 0.18752714
0.111110345 -0.1311303 -0.0058584493 0.06885822 -0.015349692 -0.2735293 -0.08106252 0.1830996
0.012552785 -0.011347451 -0.17129445 0.046278115 0.24891543 0.18770385 -0.010505179 -0.047071796
-0.093069285 -0.10288574 0.019318895 -0.079494536 0.060933568 0.13311209 0.15576532 0.08377237
0.0928232 0.08173826 -0.021969283 -0.013932825 0.028188795 0.035304517 0.036475763 -0.17592694
-0.19640484 -0.0025893622 0.041095097 0.17876118 0.05862246 0.024346525 0.054496296 -0.08316833

lstm.bias_ih_l1 f4 [512]
00000000: 363f 1fbe 4b3a 89bd db13 07be 1698 41be
00000010: f973 e7bd c5ab e23d c576 f4bd 9aa4 35be
00000020: 5067 ae3d c0c1 0bbe 29e8 8d3b d826 0dbd
00000030: a8a2 e4bd d8eb 023b 6772 8cbc f66b 01be
00000040: c9ae 6cbd 2d10 c53d 789f f9bd 6a58 b0bd
00000050: d98d b1bc 49ef 443d 6822 edbd 3bb5 393e
00000060: 62a5 2a3e eac0 0bbc 68f6 dd3d 964c 4dbe
00000070: a75b 1dbe a199 223e 58c0 92bc 6238 a23d
00000080: 6303 11be e3d0 47bc 3518 7cbd e3f8 993c
00000090: e01a 48be 0874 2abe 85e1 0c3e 4798 e8bd
000000a0: ce3f 113b ab31 e33c e8f4 21bd 8165 3ebd
000000b0: 7b9d 343f fe46 8dbd 651c 14bd 4ab8 3c3d
000000c0: 01e3 fdba 52c5 47be fd03 e6bc 7623 14bd
000000d0: 908f 27bd ff71 ebbd 1cd8 c2bc 4da0 3c3d
000000e0: ecd8 b7bd ebbd c5bc 60bf 30be 1c35 6dbe
000000f0: f990 703c 7861 8d3d 1537 b7bd b0d4 93bd
00000100: 98a6 b93e 0857 3c3e 2598 a23c f0d3 daba
00000110: 6af4 913c 4ac8 10bc d9c9 ab3d 45fe 6cbd
00000120: 0686 cc3b 5311 f1bd eee7 b43d e34c d1bc
00000130: 37d0 2fbd f79e 87bd 0624 8dbd 2cda 09bd
00000140: 34dc dcbd f812 9ebd 24d6 27be 7ffa 9e3c
00000150: 08dc a8bd dd0b 1cbe f3a6 453c 8d03 b0bd
00000160: 6650 2ebe cb4d d6bc 81cf 85be efe2 ebbd
00000170: 0050 04be d607 91bc b3f1 dabd 35fc babd
00000180: 04ac babd 760e 66bd 6c60 a13d 9ae9 e93d
00000190: afe9 7abd 0344 ac3b 564a 97bd 9b22 153e
000001a0: b886 ed3b 1443 e43b 4c61 73be c0c7 2c3d
000001b0: 6804 96bd 1a67 a73d 4e44 3ebd 1537 c8bc
000001c0: e9ad b8bc e368 da3d 4c2e 62be 5507 bfbd
000001d0: ba66 973c 0640 e8bd 0c6a c8bd 072f 00be
000001e0: b644 d23d b8a7 2abd 9d84 bbbc f4bb 04be
000001f0: 4f11 97bd 1ef3 1dbd 8e24 66bd 2ea0 98bb
00000200: a83c 95bd 76e3 3a3d 1eca 6ebd 1952 143e
00000210: ed0c 2e3d 118a 17bd 2ba0 50be b5c7 be3c
00000220: 5dcb 25be 8bc7 833d 87b8 b9bd 5d18 573c
00000230: 8b1c 06be 627a 94bd 9cd6 39bd 6a81 45bd
00000240: ee37 3bbe 2c0a 8dbc d9ec 94bc 2eba 00bd
00000250: 87d1 bfbd 1e90 ce3d 2072 573c 3505 4cbe
00000260: cf84 3e3e 74e9 d1bd b93a e53c bdb6 06be
00000270: 00c8 ac3d e232 8bbc 0a96 70bb 8283 28be
00000280: ba21 1e3d a4ac b53d d3fb c3bc 81fa 7fbd
00000290: a15e a4bc bbf1 11be 1b74 09bd c91d cabd
000002a0: 5a30 893d fcdc a43c 4f11 b53d f88a 83bd
000002b0: 121d 5ebe e86d 3fbd 0e53 d73d 1647 1fbe
000002c0: 8f64 66bd 3bdd b5bd 98ce dc3a 9e36 34bd
000002d0: 0bfb a7bc 5590 823d d425 e93d 6322 2c3e
000002e0: fe68 85bd 4dc1 7e3d 9d0d 19be 89c1 e4bd
000002f0: 160a babc ea53 cebd fb67 b0bd d867 a4bb
00000300: 22bc 9cbe 47c5 543e deb0 21bd 8a2f 013e
00000310: a8a3 ef38 05b7 c13c f12e afbd 3213 e1bd
00000320: a8d0 5fbd eed8 a33c 4807 943d bb46 a63d
00000330: bc16 103d d4fb 80bd 791d aa3d 34a3 eabd
00000340: 8d2a 34bd ea18 f6bd 0422 353d 3f12 ed3d
00000350: f4a4 973a b458 82bd 6f2a 45bd e4cc cbbd
00000360: 84c7 113e 7cc1 9d3d c8d0 8abd 37ca 8bbc
00000370: 05ed 57be f09e 54bd 0ed1 e1bc 223a 89bd
00000380: c85a bbbd 8a14 36bd 22a3 84bc 00e3 3c3e
00000390: 773c 7f3d 6f1a 95bd 0e51 dbba 6836 163e
000003a0: e2b8 8cbd 9e81 2ebd d063 0d3d 799b b73d
000003b0: c763 91bd 81cd 93bd 3a93 2cbd a141 54bc
000003c0: a134 973d 5978 a23d 85c6 dabd 7f78 c6bd
000003d0: 34c2 083d e57e 7ebd 3f8b e23c a7f1 24be
000003e0: 557c 6ebd b744 c8bc 0035 803c e6af f6bd
000003f0: fb43 d03d 9285 2cbe 7e86 1ebe 47c7 36be
-0.15551457 -0.067005716 -0.13191168 -0.18905672 -0.11301417 0.11067919 -0.11936716 -0.17738572
0.08515799 -0.13648129 0.004330654 -0.034460872 -0.11163837 0.0019977 -0.017144395 -0.1263884
-0.057783876 0.09622226 -0.121886194 -0.08610614 -0.021674084 0.048079763 -0.11578828 0.1813554
0.16664651 -0.008529881 0.10838014 -0.20048746 -0.15366994 0.15878917 -0.017913982 0.079209104
-0.14161448 -0.012195799 -0.061546523 0.018795436 -0.19541502 -0.16645825 0.13757904 -0.113571696
0.0022163275 0.027733644 -0.0395402 -0.04648352 0.70552796 -0.06898306 -0.03615989 0.04607419
-0.0019370021 -0.19508865 -0.028078074 -0.03616663 -0.040908396 -0.114963524 -0.02378469 0.046051312
-0.089769214 -0.024138412 -0.17260504 -0.23164791 0.014683002 0.06903356 -0.08946053 -0.07218301
0.36259913 0.18392575 0.019847939 -0.0016695242 0.017816741 -0.008836815 0.08388109 -0.057859678
0.006241563 -0.117708825 0.088332996 -0.025549358 -0.04292318 -0.06622117 -0.068916366 -0.03365533
-0.10784188 -0.07718462 -0.16390282 0.019406555 -0.08245093 -0.152389 0.01206373 -0.08594427
-0.17022857 -0.026160141 -0.26134875 -0.115178935 -0.12921143 -0.017703932 -0.10690632 -0.09130136
-0.091148406 -0.056166135 0.07879719 0.11421509 -0.061258014 0.005257131 -0.07387225 0.14563982
0.0072487257 0.006966004 -0.23767585 0.042182684 -0.07325059 0.08173962 -0.04645186 -0.024440328
-0.022543864 0.10664537 -0.22087973 -0.0932757 0.018481601 -0.113403365 -0.09785852 -0.1251794
0.10267012 -0.041663855 -0.022890383 -0.12962323 -0.07376348 -0.038561933 -0.056187205 -0.004657767
-0.0728696 0.04562708 -0.058298223 0.14484443 0.042492796 -0.036996905 -0.20373599 0.023288587
-0.16190858 0.06434544 -0.09068399 0.013128367 -0.13096826 -0.07249905 -0.045370683 -0.048219122
-0.18283054 -0.017216764 -0.018179344 -0.031427555 -0.09366136 0.10086082 0.013149768 -0.19923861
0.1860535 -0.10249606 0.027982103 -0.13155647 0.084365845 -0.016992036 -0.0036710524 -0.16456416
0.038606383 0.08870819 -0.02392379 -0.06249476 -0.020064654 -0.14252369 -0.033557992 -0.09868962
0.066986755 0.020124905 0.08841192 -0.064229906 -0.21690777 -0.046735674 0.10513888 -0.15554461
-0.056248244 -0.08880087 0.0016846238 -0.0439974 -0.020505449 0.063751854 0.11384168 0.16809992
-0.06514166 0.062196065 -0.149466 -0.111697264 -0.022709887 -0.10074599 -0.08613583 -0.005017262
-0.30612284 0.2077838 -0.039475314 0.12615791 0.000114268914 0.02364684 -0.08553875 -0.10989989
-0.05464235 0.020000901 0.07227951 0.081189595 0.03517793 -0.062980324 0.08306403 -0.1145691
-0.043985892 -0.12016471 0.044221893 0.11575746 0.0011569546 -0.06364575 -0.04813617 -0.09951189
0.14236265 0.0770292 -0.06778103 -0.017064197 -0.2108651 -0.051909387 -0.027565505 -0.06700541
-0.091481745 -0.04445318 -0.016191069 0.18445969 0.062313523 -0.072804324 -0.001673253 0.14669192
-0.06871201 -0.04260408 0.034519017 0.08965201 -0.07099109 -0.07216931 -0.042132594 -0.0129551
0.07383085 0.07933111 -0.10682396 -0.096909516 0.03338833 -0.062132735 0.027654288 -0.16107808
-0.05822404 -0.024446828 0.015650272 -0.12045269 0.10169216 -0.16847828 -0.15480992 -0.17849456

lstm.bias_hh_l1 f4 [512]
00000000: d5f5 f8bd a867 adbd 66c3 82bd 8dde 90bd
00000010: 7eee bcbd c9c0 443c 1cd2 42be ecb2 81bd
00000020: fc89 833b 0c90 4ebe cc5a 3d3d 748b 4bbd
00000030: 5e6d 3fbe 8662 b1bd 7309 a1bc 77ea 33be
00000040: 2a56 4dbc 3709 e23d 6867 80bd 05c8 123d
00000050: 8c39 a9bd 8eca bd3c 5631 eebd 8b93 903d
00000060: 306d 273c 8a1b f33d 637d 09bd a55d 43be
00000070: 79b3 3fbe 0770 2d3d ad63 8ebd 94ae d13c
00000080: 3a74 1abe 1ffc d8bd 4bdf 1abe 7450 0d3d
00000090: 7ff3 64be 42e1 23be 87df fa3d e911 efbd
000000a0: 8e1b 943d 6798 04be 4743 9b3b 727e c0bd
000000b0: 7ee1 463f 0999 0bbe 832c 08bd d84e df3d
000000c0: dfbd 83bd 3707 75bd ce80 5a3d d092 30be
000000d0: ad79 45bd d5a3 50bd 90e1 2fbd 15ba 2e3e
000000e0: f1c4 00be b9aa 21be 1bae fdbd 9a2c 31be
000000f0: fb3a cd3d 0ab4 003e 064e 27bd 47a9 e5bd
00000100: e597 d43e 2d50 1e3e 5e72 8fbc f55b f23d
00000110: 29e0 3abc 888f 75bc 8a9e 5dbc 1f79 05be
00000120: d7ea 013e 912a b5bd aff5 d8bb 4ed3 a6bd
00000130: 07bc 06bc 8ecc 21be 1c8b bebd 1911 48be
00000140: 6fdd 39be 5876 133d 0fcb 44be f9cd 9e3c
00000150: b2f7 80bd eb6e 9bbd 2198 a5bd 4159 8dbd
00000160: 892b 14be e955 9c3d b9ab 4cbe 447a 15be
00000170: 15a8 65bd 89a6 6ebd 9c2a 53be 17d0 cebc
00000180: 025f 03be 42fa 51be d876 0e3d b55c 7b3e
00000190: f023 9bbd d143 703d bf3d 04bd 7138 523e
000001a0: 453e 83bd c47d f5bc b9e7 70be 378f bbbd
000001b0: 0560 51bd 4b70 483d 5203 0dbc f38b c3bb
000001c0: 80c4 acbd b29c 453d ea5c 22be 4139 753c
000001d0: 6af7 72bd 1a12 ddbd f4c5 9dbd 0cf8 f4bd
000001e0: a406 4bbd ddb9 4bbe 6f27 9cbc 479a 09be
000001f0: 24e1 dfbd 32b4 34bd de04 d0bc 0f7b c4bc
00000200: f98d 1b3d 7ced 373d 64a5 75bb 833e 253e
00000210: 1135 65bd d0d0 893d b8ed d5bd aa80 853c
00000220: 6310 fdbd 13fb eb3b df69 61bd 86a1 153e
00000230: 771d 22bc c564 2abe 5e4a acbd 18b2 84bd
00000240: a940 30be 2723 febb b9b9 ec3c 346e 2ebe
00000250: e9f1 bbbd 70fd ea3d 6b7b dbbd 84b1 33be
00000260: 684a e33d 049a 15be 76ed f63c 58e0 2cbe
00000270: c575 89bd f749 90bd dabf 4abd 32c4 12be
00000280: f2b5 8cbd b3c9 8c3d 3188 3bbd d779 6ebd
00000290: 1d18 a9bd 03b8 77bd 0623 c93c c4fc c9bd
000002a0: c09a 123e 6aad 2abd 1892 a7bd bbb4 05be
000002b0: f251 aebe 93d3 eabd 223d bf3a d7bc 32be
000002c0: 430e bdbd 69a7 8dbd 187b 93bc 4c10 80bd
000002d0: 2010 103d f55f 5d3d 5fbe ae3d 3797 433e
000002e0: c76a eebc b764 2abd 2782 37be e3e8 1abe
000002f0: 8b6a 803d 4c31 bfbd 3121 beba 4033 97bd
00000300: dc04 9fbe a018 313e 738a 97bd a0cd e93d
00000310: b75c 51bc 5492 603d 5ecd a6bd c28d e33c
00000320: c3b1 0cbe e947 e93d 77bd 3c3c a57e 8c3d
00000330: b24f c7bd fc95 5e3c a325 89bd c40d 16be
00000340: ccfd afbc 0123 30bc c4f7 5dbd b094 2f3e
00000350: e04f bbbc 7b25 01be faa6 9abc 4294 47be
00000360: c8bd ce3d 7723 4c3d b4d8 383c e891 4a3c
00000370: d123 6cbd 01ef 81bd e5f1 bcbd 9c46 21be
00000380: 3872 9ebd 83ca 1bbe 247d 90bd 2a4b fd3d
00000390: ff14 8f3d 5c24 1cbe be76 babd dcb4 183e
000003a0: 34ec 5b3d bd58 bfbd 5732 93bd 5bf9 223e
000003b0: 9fb2 1fbc 6106 44be d58c 8dbd 128b 19bd
000003c0: f35c 97bd a270 3e3d 8126 a3bd e9e5 86bd
000003d0: aaa6 063e 9424 03be 2ae2 7d3d df5e 21bd
000003e0: 4554 0ebe ae2a a3bd 9ae5 5ebb 489c f9bd
000003f0: a35b 863d 2da2 f5bd 3b32 52be 2378 16be
-0.12156264 -0.084670365 -0.063849255 -0.07073698 -0.09225176 0.012008854 -0.19025463 -0.06332955
0.0040142518 -0.20172137 0.04622917 -0.04969354 -0.18694064 -0.0866137 -0.019657826 -0.1756991
-0.01253275 0.11036914 -0.06269723 0.035835285 -0.08262929 0.023167875 -0.11630504 0.070593916
0.010218903 0.11870487 -0.033566844 -0.19078691 -0.18720807 0.042343166 -0.069526054 0.02559594
-0.150834 -0.10594963 -0.15124242 0.034500554 -0.22358511 -0.16003898 0.12249666 -0.11673338
0.07231818 -0.12948762 0.0047382447 -0.093991175 0.77687824 -0.13632597 -0.033245575 0.1090371
-0.064326994 -0.059821334 0.053345494 -0.17243505 -0.048211742 -0.050937492 -0.042939723 0.17063172
-0.12575127 -0.15787782 -0.123867236 -0.1730217 0.10021015 0.1256868 -0.040845893 -0.11213928
0.41522136 0.15460272 -0.01751059 0.11833946 -0.011405983 -0.014987834 -0.013526568 -0.13034485
0.1268724 -0.088460095 -0.0066210846 -0.08145772 -0.00822354 -0.15800688 -0.09303877 -0.19537772
-0.18150876 0.036001533 -0.19218086 0.019385325 -0.06297244 -0.07589515 -0.08085657 -0.069017895
-0.14469732 0.076335736 -0.19987382 -0.14597422 -0.0560685 -0.05826429 -0.20621723 -0.02524571
-0.12829211 -0.20505622 0.034781307 0.24547084 -0.07575214 0.058658425 -0.03228545 0.20529343
-0.06408361 -0.029967196 -0.23525895 -0.091581754 -0.051116962 0.048935216 -0.008606749 -0.005967611
-0.08435917 0.04824514 -0.15855756 0.014967264 -0.059317984 -0.10794468 -0.07703772 -0.11961374
-0.04956688 -0.1989512 -0.019061772 -0.13437758 -0.10931614 -0.04411716 -0.025392946 -0.02398446
0.037977193 0.044904217 -0.0037482614 0.16137128 -0.05595881 0.06729281 -0.10445732 0.016296703
-0.12356641 0.0072015612 -0.055032607 0.14612398 -0.00989472 -0.16640003 -0.08412622 -0.06479281
-0.17212166 -0.0077556553 0.028897153 -0.17034227 -0.09177 0.114741206 -0.107168995 -0.17548186
0.11098176 -0.14609534 0.030142527 -0.16882455 -0.06711916 -0.07045358 -0.04949937 -0.14332655
-0.06870641 0.068744086 -0.04578418 -0.058221664 -0.08256552 -0.06047822 0.024552833 -0.09862664
0.14316845 -0.041669287 -0.08182162 -0.13057224 -0.34046894 -0.11466136 0.0014590363 -0.17454849
-0.09231236 -0.069166966 -0.018003032 -0.062531084 0.035171628 0.05404659 0.08532404 0.19100653
-0.02910365 -0.041599955 -0.17920743 -0.15127902 0.062703215 -0.093355745 -0.0014505741 -0.07382822
-0.31058395 0.1729455 -0.07399454 0.11416173 -0.012778453 0.05482705 -0.081446394 0.027777556
-0.13739686 0.11390669 0.011519781 0.06860093 -0.097319975 0.013585564 -0.06696632 -0.14653689
-0.021483324 -0.010750533 -0.054191366 0.17146564 -0.022865236 -0.12611954 -0.018878449 -0.1949015
0.10094792 0.04983851 0.011282135 0.012363888 -0.057651345 -0.063444145 -0.09225825 -0.15749592
-0.07736629 -0.15213971 -0.07055119 0.12367852 0.069864266 -0.15248245 -0.091046795 0.14912742
0.053692058 -0.09343097 -0.07187336 0.15915434 -0.009747176 -0.19143058 -0.06911627 -0.037486143
-0.073907755 0.046494134 -0.079663284 -0.06586821 0.13149515 -0.12806922 0.061983265 -0.039397117
-0.13899334 -0.07967125 -0.0034011365 -0.121880114 0.06560447 -0.11993823 -0.20526974 -0.14694266
