finreport_model.pth (torch, 918599 bytes, 9 tensors)

lstm.weight_ih_l0 f4 [512, 59]
0	0xbd8a731f	-0.06760239
1	0x3d1e35ba	0.038625456
2	0xbdd551cb	-0.104159914
3	0xbd8396d5	-0.06425253
4	0x3e033c60	0.12816
5	0xbe30ca58	-0.17264688
6	0x3ddd2503	0.10798075
7	0xbe28de3d	-0.16491027
8	0x3e48689e	0.19571158
9	0xbe629382	-0.22126582
10	0xbdf9aa30	-0.12190664
11	0xbd546923	-0.05185808
12	0xbe7318a5	-0.2373987
13	0xbe6d7820	-0.23190355
14	0x3db04177	0.086062364
15	0xbe9efc55	-0.3105189
16	0x3c2c85aa	0.010529915
17	0x3d3b446f	0.04571956
18	0x3d34b80c	0.044120833
19	0xbdc9702f	-0.098358504
20	0x3de1a2f8	0.11017412
21	0xbc31c62e	-0.010850472
22	0x3eaab25d	0.33339205
23	0x3b4ac394	0.0030939328
24	0xbde31716	-0.11088388
25	0xbee7d567	-0.4528
26	0x3eb2f9de	0.3495626
27	0xbdcee367	-0.10101967
28	0x3e89684a	0.2683738
29	0x3d04fafb	0.032465916
30	0x3e45bc2d	0.19310065
31	0x3efb56d4	0.49089682
32	0xbcdc4fbd	-0.02689349
33	0xbe14c6b0	-0.14528918
34	0xbe1cb0c5	-0.15301807
35	0xbd85a1be	-0.065249905
36	0x3eae2a53	0.34016666
37	0xbf00a7e5	-0.50256187
38	0xbe17d4ed	-0.14827318
39	0xbdbfce08	-0.09365469
40	0xbe42a29f	-0.19007348
41	0xbd57ab9c	-0.052653894
42	0x3d656803	0.056007396
43	0xbe3b7126	-0.18304881
44	0xbc2660ba	-0.010154897
45	0xbe6f7e70	-0.23388076
46	0x3e75e18f	0.24011825
47	0xbe27bc87	-0.16380511
48	0x3ec7478f	0.38921782
49	0x3d4214fa	0.047383286
50	0x3dae51ad	0.08511672
51	0xbe2e7336	-0.17036137
52	0x3e0e52fd	0.13898845
53	0x3d417fb9	0.047240946
54	0x3ac70f2d	0.0015187018
55	0x3e4d15bb	0.20027821
56	0x3e5b4924	0.2141462
57	0xbeb0524d	-0.3443779
58	0x3cb3dec9	0.021956818
59	0x3d4deb95	0.050273497
60	0x3ce168de	0.027515825
61	0x3d90f2f6	0.07077591
62	0xbd1899af	-0.03725594
63	0xbdfdc38b	-0.123908125
64	0xbcdf7de9	-0.027281718
65	0x3b827415	0.003981123
66	0x3e59b93a	0.21262065
67	0x3db6dd1a	0.089288905
68	0xbe1bc30a	-0.1521112
69	0xbc85474c	-0.016269349
70	0xbde4dd79	-0.11175055
71	0xbea68ac0	-0.32527733
72	0xbe0b6a98	-0.13614881
73	0xbb10d537	-0.0022099742
74	0x3e66e436	0.22547993
75	0x3e72c488	0.23707783
76	0x3db50a3a	0.08839841
77	0x3c0daabc	0.008646663
78	0xbdd18dfc	-0.102321595
79	0xbe71f488	-0.23628438
80	0xbb5e4ba0	-0.0033919588
81	0x3e04ebc8	0.12980568
82	0x3f1d8d71	0.6154395
83	0x3ca76c5d	0.020437414
84	0x3d43dbd1	0.047817055
85	0x3db01c5a	0.08599158
86	0x3ebd8e17	0.37022468
87	0xbe072626	-0.13198146
88	0x3da759a1	0.08171392
89	0xbe01f5fe	-0.12691495
90	0x3e574360	0.21021795
91	0x3e728e0f	0.23687004
92	0x3e12f9d1	0.1435311
93	0x3e673c27	0.2258154
94	0xbb284395	-0.0025675048
95	0xbe220eec	-0.15826005
96	0x3e193bc9	0.14964212
97	0x3e7e2cde	0.24821803
98	0x3c8cfedf	0.017211376
99	0xbb3a250d	-0.0028403432
100	0xbd8590dc	-0.0652177
101	0xbcda5aea	-0.02665468
102	0xbdd4b35a	-0.10385771
103	0x3dae4e9f	0.085110895
104	0x3d9acbd3	0.07558408
105	0x3d8a0844	0.06739858
106	0x3e9d42f4	0.30715144
107	0xbe3a3bca	-0.1818687
108	0xbd981aa9	-0.0742696
109	0xbb4b7f04	-0.003105105
110	0x3d4ecb92	0.05048711
111	0xbebd544f	-0.36978385
112	0x3e8aa0ae	0.27075714
113	0xbd3c0088	-0.045898944
114	0x3daf58db	0.0856187
115	0x3e8108a4	0.25201905
116	0x3ea38a65	0.31941524
117	0x3c75df12	0.015006797
118	0x3e3f7024	0.18695122
119	0x3e089920	0.13339663
120	0x3df8b09a	0.12143059
121	0x3d889889	0.06669719
122	0xbd560084	-0.052246585
123	0x3d9156ef	0.070966594
124	0x3df1c384	0.1180487
125	0x3e961dfc	0.2931975
126	0xbc25cc49	-0.010119506
127	0xbd384e98	-0.044996828
128	0xbcbbcf9e	-0.022926148
129	0xbdd69081	-0.10476781
130	0xbd361518	-0.04445371
131	0x3b443638	0.0029939543
132	0x3e727886	0.23678789
133	0xbe160d93	-0.14653616
134	0x3e094470	0.13405013
135	0xbe32e8ec	-0.17471665
136	0x3c518ee6	0.012790417
137	0xbe853ef7	-0.260246
138	0xbe08f02e	-0.13372871
139	0x3da664dc	0.08124706
140	0xbd2e78be	-0.042595617
141	0xbe99fc7d	-0.30075446
142	0x3e960a35	0.29304662
143	0x3dfb37c1	0.122664936
144	0x3cacaba9	0.021077948
145	0x3cfde8af	0.030994741
146	0x3de8ce20	0.1136744
147	0x3d3a2c55	0.045452435
148	0xbdb87335	-0.09006349
149	0x3e62dbcf	0.22154163
150	0xbe64d57f	-0.22347067
151	0xbe2de94c	-0.16983527
152	0x3d0c185c	0.03420292
153	0xbd78e587	-0.06076577
154	0x3e4a3bfa	0.19749442
155	0x3eb392ef	0.3507304
156	0x3ebfc781	0.37456897
157	0x3d1a39c8	0.03765276
158	0x3e25c93e	0.16190049
159	0xbdf36e1e	-0.118862376
160	0x3d22bdd5	0.03973182
161	0x3e8c8f35	0.27453008
162	0x3df9db4a	0.12200029
163	0x3e2ad768	0.16683733
164	0xbc96a3dc	-0.018388681
165	0xbe19f835	-0.1503609
166	0xbe81edbe	-0.25376695
167	0x3e76297d	0.24039264
168	0x3e2ba0d3	0.16760568
169	0x3e465c3b	0.1937112
170	0xbe283853	-0.16427736
171	0x3d4bf771	0.049796525
172	0x3ee06ae1	0.43831542
173	0x3c348bde	0.011019675
174	0xbe65e9c2	-0.22452453
175	0x3ebae2e8	0.3650124
176	0xbe18a344	-0.14906031
177	0x3dbdb8ed	0.092637874
178	0x3dc6afa6	0.09701471
179	0x3e6cff3d	0.2314424
180	0x3e89d4f2	0.26920277
181	0xbe44b8a2	-0.19211057
182	0x3e489c8e	0.19590971
183	0x3e9ded06	0.30844897
184	0xbd9e7bc4	-0.0773845
185	0x3eb0cabe	0.3452968
186	0x3e848f6c	0.25890672
187	0x3e3ca2d8	0.18421495
188	0x3e532b46	0.20621976
189	0x3e0e42d6	0.13892683
190	0xbe3111da	-0.17291966
191	0xbc802fe1	-0.01564783
192	0x3e585517	0.21126209
193	0x3e921161	0.28528884
194	0xb8f98e06	-0.00011899699
195	0x3e773c75	0.24144156
196	0xbeae2b7e	-0.34017557
197	0x3e47e433	0.19520645
198	0x3e935120	0.2877283
199	0xbe7040a0	-0.23462152
200	0xbd2d7c39	-0.042354796
201	0x3d3becf0	0.045880258
202	0x3e9463f2	0.28982502
203	0xbe1c6d52	-0.15276077
204	0x3e5f368b	0.2179815
205	0xbd621ee7	-0.055205252
206	0x3e1899a8	0.14902365
207	0xbe0d79b8	-0.13815963
208	0xbe4bd704	-0.1990624
209	0xbd971c0a	-0.07378395
210	0xbe3b94a3	-0.18318419
211	0x3d28c024	0.041198865
212	0xbd7f40f4	-0.062317804
213	0xbe1a38c2	-0.15060714
214	0x3e802945	0.25031486
215	0x3d7c4485	0.061588783
216	0xbd8668f4	-0.06562987
217	0x3df23f1e	0.11828445
218	0xbc1d523f	-0.0096021285
219	0x3e900634	0.28129733
220	0x3e6471d9	0.22309054
221	0x3de99383	0.11405089
222	0xbe041a31	-0.12900616
223	0xbd58e249	-0.052950177
224	0xbe0c042e	-0.1367347
225	0x3cfd3a0d	0.03091147
226	0xbcaa5622	-0.020793024
227	0x3dad108d	0.084504224
228	0xbe089e54	-0.13341647
229	0xbe32c124	-0.1745649
230	0xbf07cfd5	-0.530515
231	0xbdc50fcb	-0.09622153
232	0xbb1e4fe2	-0.00241565
233	0xbcbb07c7	-0.022830857
234	0x3e6687a7	0.22512685
235	0xbdaebef3	-0.085325144
236	0x3dcc1edc	0.099668235
237	0x3e574886	0.21023759
238	0x3de9210d	0.11383257
239	0x3e080a39	0.1328515
240	0xbdc2a2f2	-0.095037356
241	0x3e60f9a9	0.21970238
242	0x3e3f5f7c	0.18688768
243	0x3d004c11	0.031322543
244	0x3eab07ad	0.33404294
245	0x3e28c9ee	0.1648328
246	0x3e267a3b	0.16257565
247	0x3d8974a4	0.067117006
248	0x3d0b5f51	0.034026448
249	0xbe82f1e8	-0.25575185
250	0x3ebc6760	0.3679762
251	0x3dac4ffa	0.08413692
252	0x3e70e0f4	0.23523313
253	0x3d295f13	0.041350435
254	0x3d9ea30a	0.07745941
255	0x3e84ff3c	0.25975978

lstm.weight_hh_l0 f4 [512, 128]
0	0xbcc534a7	-0.024072958
1	0x3c903635	0.017603973
2	0x3e57a24c	0.21058005
3	0xbe3e99a1	-0.18613292
4	0xbce3a661	-0.027789297
5	0xbed47979	-0.41498926
6	0x3ebb7926	0.36615866
7	0x3dc78c7a	0.09743591
8	0x3db714c3	0.08939507
9	0x3dcb0c60	0.0991447
10	0xbe6c0e6f	-0.23052381
11	0x3e9f8cac	0.31162012
12	0x3ec1e96b	0.37873396
13	0xbef58d1b	-0.47959217
14	0x3e05fcca	0.13084713
15	0x3df0c181	0.11755658
16	0xbe325eab	-0.17418925
17	0xbf01f10c	-0.50758433
18	0x3d2ec1ea	0.0426654
19	0x3e1199f4	0.14218885
20	0x3e99e426	0.30056876
21	0x3d48077b	0.04883526
22	0x3e9c54f0	0.30533552
23	0x3e200a36	0.15628895
24	0x3dd567b2	0.10420169
25	0x3d64d14e	0.05586367
26	0xbd0c8f17	-0.03431615
27	0xbd293b3b	-0.041316252
28	0x3e77117d	0.24127765
29	0xbe1a04a3	-0.15040831
30	0xbe02b6dc	-0.12765068
31	0xbe53e3a0	-0.20692301
32	0x3dd7fbbc	0.105460614
33	0x3db0d236	0.086338446
34	0xbe6e0290	-0.23243165
35	0xbe39fb27	-0.18162213
36	0x3cdc26d2	0.02687398
37	0xbe99d9bd	-0.30048934
38	0xbd9a8b28	-0.07546073
39	0x3ec9c8c6	0.3941099
40	0x3da8f413	0.082496785
41	0x3ed32f5c	0.4124707
42	0x3c8e52a2	0.017373387
43	0x3d6ace11	0.057325426
44	0xbe019499	-0.12654342
45	0xbe30fc79	-0.1728381
46	0x3eb72e0d	0.3577732
47	0x3eece30f	0.46266982
48	0x3e89bafb	0.26900467
49	0x3e08ddab	0.1336581
50	0x3e91d27a	0.28480893
51	0x3dc4920a	0.09598167
52	0x3cad4ef4	0.021155812
53	0x3e1e53dd	0.15461679
54	0xbd25dad1	-0.040491883
55	0xbe0efa0a	-0.1396257
56	0xbef92026	-0.4865734
57	0xbe3bcf02	-0.18340686
58	0xbe9e82d4	-0.3095919
59	0xbe0673f1	-0.13130166
60	0xbf222097	-0.6333098
61	0x3ec53739	0.38518694
62	0x3d032162	0.03201426
63	0xbe9136c6	-0.283621
64	0x3e356f21	0.17718174
65	0x3d9955ce	0.07487069
66	0xbcc78480	-0.024355173
67	0x3e994d6e	0.29941887
68	0xbed9e171	-0.4255481
69	0xbdf17581	-0.1178999
70	0x3b7dc669	0.0038722998
71	0xbe1a1599	-0.15047301
72	0xbe972448	-0.29519868
73	0xbdc0235c	-0.09381744
74	0xbce0d8e2	-0.027447168
75	0x3de70806	0.11280827
76	0x3e185783	0.14877133
77	0x3e699aa2	0.22812894
78	0x3e8075c7	0.25089857
79	0x3e90f365	0.28310695
80	0xbe222a69	-0.1583649
81	0x3e0c9111	0.13727213
82	0x3d237a91	0.03991181
83	0x3dd7278f	0.10505592
84	0xbd9a6a66	-0.07539825
85	0xbe8ad465	-0.2711517
86	0x3e0d840f	0.13819908
87	0x3e6b3f0c	0.22973269
88	0xbe1961b3	-0.14978676
89	0x3f3de02d	0.7417019
90	0x3d5cbe3d	0.053892363
91	0x3e419494	0.18904334
92	0xbed10262	-0.4082213
93	0xbd8ee8a1	-0.06977964
94	0x3cf3f730	0.029780954
95	0xbe8869f1	-0.26643327
96	0xbe7ea450	-0.24867368
97	0xbec2c8a0	-0.3804369
98	0xbe90f488	-0.28311563
99	0x3e44dc06	0.19224557
100	0xbc1f501e	-0.009723691
101	0xbe225e1f	-0.15856217
102	0xbe289371	-0.16462494
103	0xbdc5d0cb	-0.09658965
104	0x3d38c2ec	0.045107767
105	0xbd413fa2	-0.047179826
106	0x3d0591f8	0.03260991
107	0x3d896989	0.06709582
108	0xbce4239d	-0.027849013
109	0x3e0d6d05	0.13811119
110	0x3de08788	0.109633505
111	0x3e83e8b6	0.25763482
112	0x3ed702d8	0.41994357
113	0xbd388b5a	-0.04505477
114	0x3e3eeded	0.18645449
115	0xbee4d4d6	-0.4469363
116	0xbe0e2f3f	-0.1388521
117	0x3e57dd97	0.21080624
118	0x3d9c18d1	0.07621921
119	0xbeb93c51	-0.3617883
120	0xbe7ce1d1	-0.24695517
121	0xbe9468c8	-0.28986192
122	0xbe321982	-0.17392543
123	0x3d749c0a	0.059719123
124	0x3e5770fd	0.21039195
125	0xbe718c66	-0.23588714
126	0xbd0bb9b4	-0.034112647
127	0xbbae8eb0	-0.0053270683
128	0xbbd1e264	-0.0064051617
129	0x3abc5d34	0.0014371038
130	0xbdb4aa86	-0.08821587
131	0xbd745fc3	-0.059661638
132	0xbd55c68d	-0.052191306
133	0xbe7402a9	-0.2382914
134	0xbe6133e7	-0.21992455
135	0xbe40b456	-0.18818793
136	0xbe6da111	-0.23205973
137	0x3e044cf1	0.12919976
138	0x3e467b90	0.19383073
139	0x3e79dc08	0.24400342
140	0x3ea87518	0.32901835
141	0xbd8263c5	-0.06366686
142	0xbca2172d	-0.019786442
143	0xbe5d77f0	-0.21627784
144	0xbe052d44	-0.13005549
145	0xbdfe13d1	-0.124061234
146	0xbe46ec9f	-0.19426201
147	0xbe82589c	-0.2545823
148	0x3e615cdb	0.22008078
149	0xbeb676f7	-0.35637638
150	0xbe8735fd	-0.26408377
151	0xbcfecd82	-0.031103853
152	0x3e66e68e	0.22548887
153	0xbdd3e214	-0.10345855
154	0xbe997983	-0.2997552
155	0xbc7448b5	-0.014909913
156	0xbd9b6fa3	-0.075896524
157	0xbe766b56	-0.24064383
158	0xbe1f4bde	-0.15556285
159	0xbe52e115	-0.20593674
160	0xbdd8923e	-0.105747685
161	0x3ea653c6	0.3248579
162	0xbe36ef7d	-0.17864795
163	0xbe881ab2	-0.26582867
164	0xbe87c6ab	-0.2651876
165	0xbdd640ac	-0.10461554
166	0xbdb64e67	-0.08901673
167	0x3d0b1a80	0.03396082
168	0xbe7c14f9	-0.24617375
169	0xbe2e2e43	-0.17009835
170	0x3e427138	0.18988502
171	0x3e1be5c0	0.15224361
172	0xbd6e06bb	-0.058111887
173	0x3e86782e	0.26263565
174	0x3dffede4	0.12496546
175	0xbd8efe9a	-0.06982155
176	0xbdf1dfd7	-0.11810272
177	0x3de3088d	0.11085615
178	0x3d01fd73	0.03173585
179	0x3dd5d133	0.10440292
180	0x3e076837	0.13223349
181	0xbe375cf3	-0.17906551
182	0xbe9e5425	-0.30923572
183	0xbdf7fb33	-0.12108459
184	0xbc83fb0b	-0.016110918
185	0x3e2d6fd2	0.16937187
186	0xbe9d0d3a	-0.30674154
187	0xbe1bd429	-0.15217651
188	0xbe43e425	-0.19129999
189	0xbe5012e5	-0.20319708
190	0xbe7425e8	-0.23842585
191	0x3df92849	0.12165887
192	0xbdf361ab	-0.11883863
193	0xbc98879f	-0.018619357
194	0xbd4ae11a	-0.04953108
195	0xbe61a252	-0.22034577
196	0x3dc4e29a	0.09613533
197	0xbe53cd45	-0.20683773
198	0x3ecc8899	0.39947966
199	0x3cfc4bc3	0.030797845
200	0x3b8180b1	0.003952109
201	0x3ec5aa55	0.38606516
202	0x3e6af7dd	0.22946115
203	0x3e499d90	0.19689012
204	0x3da9772f	0.082746856
205	0x3d1488c3	0.03626324
206	0xbe7f6b68	-0.24943316
207	0x3f06b4bf	0.52619547
208	0x3ec05c14	0.3757025
209	0x3e1a2981	0.15054895
210	0xbd8d6d52	-0.06905617
211	0xbd3c8b7c	-0.04603146
212	0xbe323a8c	-0.17405146
213	0xbd5c59b0	-0.05379647
214	0xbdd2a268	-0.10284883
215	0xbc0f7d4e	-0.008757902
216	0xbd3b9ed4	-0.045805767
217	0x3e2044c5	0.15651233
218	0x3d5518e3	0.052025687
219	0x3d2bdf00	0.041960716
220	0x3cd9ca31	0.02658567
221	0xbe0405d4	-0.12892848
222	0xbe93751a	-0.2880028
223	0x3ded1468	0.11576158
224	0x3e51c654	0.20485812
225	0x3eb5137e	0.35366434
226	0xbe3068b2	-0.17227438
227	0x3c6778f1	0.014127956
228	0xbe896473	-0.2683445
229	0xbd873342	-0.066015735
230	0xbe83d8ad	-0.25751248
231	0xbd5d5f94	-0.05404623
232	0x3e9d679d	0.30743113
233	0xbe8d4da9	-0.27598312
234	0x3e994a91	0.29939702
235	0xbe7bc417	-0.24586521
236	0xbd33a728	-0.043860584
237	0xbcf0d2e4	-0.029397435
238	0x3da5ebff	0.08101653
239	0x3ec5fec8	0.38670945
240	0x3df53cc4	0.11974481
241	0x3e701470	0.23445296
242	0x3db73e13	0.089473866
243	0xbef40437	-0.47659466
244	0x3c117618	0.008878253
245	0x3ebb4db5	0.36582723
246	0x3cf8e935	0.03038464
247	0xbe440de0	-0.19145918
248	0xbe218fea	-0.15777555
249	0xbc8e0391	-0.017335685
250	0xbe326575	-0.17421515
251	0x3d04924f	0.032366093
252	0xbeb797f1	-0.3585811
253	0x3dcd185d	0.100144126
254	0x3e301570	0.17195678
255	0xbe9999de	-0.30000204

lstm.bias_ih_l0 f4 [512]
0	0xbdb114a6	-0.086465165
1	0xbe1c8251	-0.15284087
2	0xbe170670	-0.1474855
3	0x3dc0102d	0.09378085
4	0x3db49d29	0.088190384
5	0x3d212099	0.03933773
6	0x3dd9fbd1	0.10643733
7	0x3db6a6f7	0.08918565
8	0x3dc0fa65	0.09422759
9	0x3c9717db	0.018443992
10	0x3da37910	0.07982075
11	0xbd1b254d	-0.03787737
12	0xbda3d0ca	-0.07998808
13	0x3d35839f	0.044314977
14	0x3cec7c5f	0.028867899
15	0x3e1ac0e4	0.15112644
16	0x3d932751	0.071852334
17	0xbd4a0a92	-0.049326487
18	0x3e4121e5	0.18860586
19	0xbd0f1fa6	-0.03494229
20	0x3de3bf57	0.111204796
21	0xbde2ebb2	-0.110801116
22	0xbdc5ce0b	-0.0965844
23	0xbde9edb6	-0.11422293
24	0x3caed7ea	0.02134319
25	0x3d9a7775	0.07542316
26	0x3da0a041	0.07843066
27	0xbd255dcb	-0.04037265
28	0xbc23a9d5	-0.009989222
29	0x3d9402d0	0.07227099
30	0x3dd5836e	0.10425459
31	0x3e44f761	0.19234993
32	0x3dfb81ed	0.12280641
33	0xbe4d9ddf	-0.20079754
34	0xbccbdd8c	-0.024885915
35	0x3d4ac6a4	0.049505845
36	0x3e3c134e	0.18366739
37	0x3e8658e3	0.2623969
38	0x3d9ab036	0.07553141
39	0xbc133042	-0.0089836735
40	0x3dd9c400	0.10633087
41	0xbd967579	-0.07346625
42	0xbcf89eab	-0.030349096
43	0x3d4fe873	0.05075879
44	0x3e480346	0.19532499
45	0x3e1555cc	0.1458351
46	0xbe217fbe	-0.15771386
47	0xbc2f8de4	-0.010714982
48	0xbd8927e0	-0.06697059
49	0xbd761c50	-0.060085595
50	0xbbe7419c	-0.007057382
51	0x3c26451b	0.010148312
52	0xbd836ee2	-0.064176336
53	0x3cc0bcfd	0.023527617
54	0x3d1e85d0	0.038701832
55	0x3e087d47	0.1332904
56	0xbda42460	-0.080147505
57	0xbc22f646	-0.0099464115
58	0x3e4e6f93	0.2015975
59	0x3e6232ef	0.22089742
60	0xbd10e455	-0.035374004
61	0xbddc3682	-0.10752584
62	0xbde57302	-0.112035766
63	0xbbf5ec5a	-0.007504982
64	0x3dbdcb0a	0.09267242
65	0xbb947de7	-0.0045316103
66	0x3d7a6b35	0.061137397
67	0xbb76aa85	-0.0037638259
68	0xbdb3f4c3	-0.08786919
69	0x3bfdf7e8	0.0077505
70	0x3dddbdcf	0.10827219
71	0xbc427ebd	-0.011871037
72	0x3d2272b9	0.03966019
73	0x3e077f6c	0.13232201
74	0x3cd7bcc9	0.026335137
75	0x3d56f9ad	0.052484203
76	0x3d816250	0.0631758
77	0x3d416abc	0.04722093
78	0xbdb60b2c	-0.088888496
79	0xbc02b904	-0.0079786815
80	0x3cfa9540	0.030588746
81	0xbd8f855d	-0.07007859
82	0xbe613022	-0.21991017
83	0x3de3b672	0.11118783
84	0x3d774cd5	0.060376007
85	0x3e0a798f	0.13522933
86	0xbec65bf6	-0.38742036
87	0xbd5dd130	-0.054154575
88	0x3c59c6bc	0.013292011
89	0xbe06da04	-0.13169104
90	0x3b532828	0.003221998
91	0xbc728b9a	-0.014803791
92	0x3e009ea8	0.12560523
93	0xbd4a5a04	-0.04940225
94	0x3dc1002d	0.09423862
95	0xbe25ec9a	-0.16203538
96	0xbc22057e	-0.009889005
97	0x3d39fc08	0.04540637
98	0x3df64d48	0.12026459
99	0xbd2ab388	-0.04167512
100	0x3c8e2fe6	0.017356824
101	0xbdad91e4	-0.08475092
102	0x3e91ceed	0.28478184
103	0x3e409dca	0.18810192
104	0xbd713527	-0.05888858
105	0x3d02a4c1	0.031895403
106	0x3db38de0	0.08767295
107	0xbd79d508	-0.060994178
108	0x3da4b357	0.08042019
109	0x3db33e2b	0.08752092
110	0x3d057f33	0.03259201
111	0xbcd660cc	-0.026169203
112	0x3e031bc9	0.12803568
113	0x3cd4da64	0.025983043
114	0xbe318d89	-0.17339148
115	0xbe1adcc1	-0.15123273
116	0xbdc9f1ca	-0.09860571
117	0xbd138e2c	-0.036024258
118	0x3e4e798f	0.20163558
119	0x3e4da424	0.20082146
120	0xbd0fa726	-0.035071515
121	0x3d3ee37d	0.04660367
122	0xbe2177d2	-0.15768364
123	0x3e039b93	0.12852316
124	0x3e3e3624	0.1857534
125	0x3dfa1f50	0.12213004
126	0xbd87afcc	-0.066253275
127	0xbdfef227	-0.12448531
128	0x3e31ce94	0.1736396
129	0x3d98225b	0.07428428
130	0x3d388fe2	0.045059092
131	0x3bf73f1c	0.007545365
132	0xbd8928d5	-0.06697241
133	0x3d2bfbc9	0.041988168
134	0xbd9149e4	-0.07094172
135	0xba5c26fc	-0.0008398143
136	0xbe0f89ae	-0.14017364
137	0x3d5b877b	0.053596
138	0x3ea010c3	0.31262788
139	0xbe0cda65	-0.13755186
140	0x3dd02332	0.10162963
141	0x3cf9c2d2	0.030488405
142	0xbcd52235	-0.026017288
143	0xbc3daaa3	-0.0115763275
144	0x3de88bfa	0.113548234
145	0xbd8a6f8f	-0.06759559
146	0xbda7ae8b	-0.08187588
147	0x3dc52d05	0.096277274
148	0x3e2a9572	0.16658571
149	0xbccc216f	-0.024918286
150	0xbe043f05	-0.12914665
151	0x3d9d8ab6	0.07692473
152	0x3dce7afd	0.10082052
153	0x3d22702d	0.03965776
154	0x3e6f6161	0.23376991
155	0x3e732301	0.23743822
156	0xbce63e48	-0.02810587
157	0x3e21e441	0.15809728
158	0x3cea54c1	0.028604867
159	0x3e9c2560	0.30497265
160	0xbbb50212	-0.0055239284
161	0xbd5f6a2d	-0.054544616
162	0x3e577630	0.21041179
163	0x3e0d511c	0.13800472
164	0x3d8d61ce	0.069034204
165	0x3e5033c5	0.20332249
166	0x3d6b1190	0.057389796
167	0x3e64de99	0.2235054
168	0x3e7dc346	0.24781522
169	0xbae9f37c	-0.0017849053
170	0x3cc16106	0.023605835
171	0x3d541746	0.051780008
172	0x3d8abe62	0.06774594
173	0xbd5d194f	-0.053979214
174	0x3e678687	0.22609912
175	0x3b7c9ee6	0.003854686
176	0x3d4b9f91	0.04971272
177	0x3d993978	0.074816644
178	0x3e0d7438	0.13813865
179	0x3da82737	0.08210605
180	0x3d7a1a19	0.061060045
181	0x3c6e3ac3	0.014540377
182	0x3dafd104	0.085847884
183	0x3e007010	0.12542748
184	0x3df8e518	0.12153071
185	0x3cd55381	0.026040794
186	0xbdc1b56c	-0.094584316
187	0xbd34bb8a	-0.044124164
188	0x3d4009b7	0.046884265
189	0xbe02aff3	-0.12762432
190	0x3de07acf	0.10960924
191	0x3e0ea285	0.13929184
192	0x3e037672	0.12838152
193	0x3e460ac0	0.19340038
194	0x3c6ff43a	0.0146456305
195	0x3e31d262	0.17365411
196	0xbd3101c6	-0.043214582
197	0x3e49faa2	0.19724515
198	0x3d408e63	0.04701079
199	0x3e5e5d3c	0.21715254
200	0x3e1ee9f4	0.15518934
201	0x3d29b486	0.041431926
202	0xbdb7206f	-0.08941733
203	0xbce6af20	-0.028159678
204	0x3e25eb00	0.16202927
205	0x3e1814ee	0.14851734
206	0xbdb0c67c	-0.08631608
207	0x3d0faab7	0.035074916
208	0x3dccbf7b	0.099974595
209	0x3da33229	0.07968552
210	0xbb8e032f	-0.0043338756
211	0x3df20a4f	0.118183725
212	0x3d052700	0.032507896
213	0x3caf3deb	0.02139183
214	0x3e71e7fc	0.23623651
215	0xbdeb79b3	-0.11497822
216	0x3d64ee00	0.055891037
217	0xbe4b6a92	-0.19864872
218	0xbdc3555b	-0.09537765
219	0x3d96ada6	0.073573396
220	0x3e1d3add	0.15354486
221	0x3de7f5ea	0.11326201
222	0x3cdb211a	0.026749182
223	0x3dc17ef9	0.09448046
224	0xbe9ddfcd	-0.3083481
225	0xbd92aa65	-0.071614064
226	0x3e1699b8	0.14707077
227	0xbde276bf	-0.11057805
228	0x3d706e1c	0.05869876
229	0x3c4ce397	0.0125054335
230	0x3e7de75e	0.24795291
231	0xbdf7bd9d	-0.12096713
232	0x3e7d8f6c	0.24761742
233	0xbbdd30f0	-0.0067502186
234	0xbda369b5	-0.079791464
235	0x3ccd77bc	0.025081508
236	0xbcade78e	-0.021228578
237	0x3e4f3552	0.20235184
238	0x3da82053	0.0820929
239	0x3e816e68	0.25279546
240	0x3dba027f	0.09082507
241	0xbd3e9e5a	-0.046537735
242	0x3d1a29e2	0.0376376
243	0xbcf31a70	-0.029675692
244	0x3d030b47	0.031993177
245	0x3d6af84d	0.057365704
246	0x3d6e8963	0.05823649
247	0x3da42b94	0.08016124
248	0x3cc7a04f	0.024368433
249	0x3dbda56e	0.09260069
250	0xbd7295cc	-0.05922489
251	0x3def9eb6	0.117001936
252	0x3dd63923	0.10460117
253	0x3e421430	0.18953013
254	0x3c96b12d	0.01839503
255	0x3e7e3b0e	0.24827215

lstm.bias_hh_l0 f4 [512]
0	0xbe5c5b57	-0.21519218
1	0xbd0fff30	-0.035155475
2	0xbc8479f7	-0.016171439
3	0xbcd02988	-0.025410429
4	0x3d8b1deb	0.06792816
5	0xbdac6757	-0.08418148
6	0x3df1d821	0.118088014
7	0x3d8d3fab	0.06896909
8	0x3de569ef	0.11201846
9	0xbdfeea0b	-0.12446984
10	0xbc82c712	-0.015964065
11	0xbda8d637	-0.08243983
12	0xbd5ccb48	-0.0539048
13	0xbc818c73	-0.015814042
14	0xbcbcc8d2	-0.023044977
15	0x3e508004	0.20361334
16	0xbc750d7e	-0.01495683
17	0x3dba50a3	0.090974115
18	0x3df4e990	0.11958611
19	0xbdc4eb25	-0.09615163
20	0x3d91e539	0.07123799
21	0xba06220e	-0.0005116769
22	0xbc8057d7	-0.015666885
23	0xbce0b32a	-0.027429182
24	0xbda31535	-0.07963029
25	0x3d5ae5fc	0.053441986
26	0x3d8a3dfc	0.06750104
27	0xbd36a9e4	-0.044595614
28	0x3d6fa665	0.058508296
29	0x3daa4bc7	0.08315235
30	0x3dfa8c90	0.122338414
31	0x3cd2e1cf	0.02574244
32	0x3d63512b	0.05549733
33	0xbdf5600f	-0.11981212
34	0x3c0214cb	0.007939528
35	0x3d2896f0	0.04115957
36	0x3e44f635	0.19234546
37	0x3e939bcc	0.288298
38	0x3d803c87	0.06261545
39	0x3d9a4e0e	0.07534419
40	0x3d26c822	0.040718205
41	0xbb53ff20	-0.0032348111
42	0x3b7e378f	0.003879044
43	0x3dd377c6	0.10325579
44	0x3d9dc982	0.0770445
45	0x3dc252b2	0.09488429
46	0xbdd35c2c	-0.10320315
47	0x3bbf66cc	0.0058411118
48	0xbdb60a5c	-0.08888695
49	0xbd9838bf	-0.074326985
50	0xbd466a8a	-0.048441447
51	0xbd9ac632	-0.07557334
52	0xbdaccdab	-0.084376656
53	0x3c1f6b10	0.0097301155
54	0x3d9ea27b	0.077458344
55	0x3caf6866	0.021412086
56	0x3bddf980	0.0067741275
57	0x3d958bfc	0.073020905
58	0x3e25e539	0.16200723
59	0x3dc680b4	0.09692517
60	0x3b4e884f	0.0031514352
61	0x3cb28a90	0.021794587
62	0xbd84558a	-0.06461628
63	0x3d462d50	0.048383057
64	0x3e629f92	0.22131184
65	0x3dff75fa	0.12473674
66	0x3d8be037	0.06829875
67	0x3d7c6be3	0.061626326
68	0xbdc84609	-0.09778983
69	0x3de6ce9f	0.112698786
70	0x3dda65d6	0.10663955
71	0xbcace40c	-0.021104835
72	0x3d1501cf	0.036378678
73	0x3e260d36	0.16215977
74	0x3c68ce73	0.014209378
75	0xbd38efa1	-0.045150403
76	0x3da26dde	0.07931112
77	0xbd82b2cd	-0.0638176
78	0xbd4841a0	-0.04889071
79	0xbdc4246f	-0.09577262
80	0x3e023673	0.12716083
81	0xbd6e0b8e	-0.05811649
82	0xbe16b600	-0.14717865
83	0x3e0728ab	0.13199107
84	0x3d1d3301	0.03837872
85	0x3d842329	0.06452019
86	0xbec628d1	-0.38703015
87	0x3d0276c0	0.03185153
88	0xbceefeef	-0.029174296
89	0xbe510c4b	-0.20414846
90	0x3d918594	0.07105556
91	0xbdd3144d	-0.103066064
92	0x3cde871f	0.02716404
93	0x3d35d1b3	0.044389438
94	0x3e47e750	0.19521832
95	0xbd9a6e7b	-0.07540604
96	0xbd80dc90	-0.06292069
97	0x3e063db2	0.13109472
98	0x3cdb1aba	0.026746143
99	0xbba0d0b8	-0.0049076937
100	0x3d8bca32	0.06825675
101	0xbd4b46ce	-0.04962807
102	0x3e8cb839	0.274843
103	0x3dea268c	0.114331335
104	0xbdd04d14	-0.101709515
105	0xbd16a08d	-0.036774207
106	0x3dc42770	0.095778346
107	0xbdac8709	-0.084241934
108	0x3e37b8c1	0.17941572
109	0xbc668fcf	-0.014072373
110	0x3d80ebe3	0.06294992
111	0x3d03526c	0.032061026
112	0x3e952399	0.2912872
113	0x3dcd63bb	0.10028788
114	0xbe4705ee	-0.19435856
115	0xbd8b4a66	-0.068013
116	0xbc146471	-0.00905715
117	0xbbad75e8	-0.0052935965
118	0x3dd2e2ed	0.10297189
119	0x3dad3d15	0.08458916
120	0xbd5e596a	-0.05428449
121	0xbbe5cd80	-0.007013023
122	0xbdf72483	-0.12067511
123	0x3dac2bb0	0.0840677
124	0x3da956bc	0.082684964
125	0x3e3bfa61	0.1835723
126	0xbe01f898	-0.12692487
127	0xbd7acddc	-0.06123148
128	0x3ddada0a	0.10686119
129	0xbd221256	-0.039568268
130	0x3e072eb1	0.13201405
131	0xbdd5515c	-0.10415909
132	0xbe239191	-0.15973498
133	0x3c3c3672	0.01148759
134	0x3d9214e2	0.07132889
135	0xbcd4150a	-0.025888938
136	0xbe223660	-0.15841055
137	0x3d91636d	0.07099042
138	0x3e86dcdb	0.26340374
139	0xbdd9c3dc	-0.1063306
140	0x3d873008	0.06600958
141	0x3e098a49	0.13431658
142	0x3d908674	0.07056895
143	0xbd1eb31a	-0.038745023
144	0x3e452f8f	0.19256423
145	0xbe2a6565	-0.16640241
146	0xbd29db16	-0.041468702
147	0x3d59ecff	0.053204533
148	0x3e026e80	0.12737465
149	0x3dedfd78	0.11620611
150	0xbe1677a3	-0.14694075
151	0x3a1df085	0.0006024915
152	0x3e3c6b97	0.18400417
153	0xbc5dae4d	-0.013530326
154	0x3e6a0793	0.22854452
155	0x3e07cdba	0.13262072
156	0x3cb00529	0.021486836
157	0x3c8037c4	0.015651591
158	0xbdf17655	-0.11790148
159	0x3e5d609e	0.21618888
160	0xbdd704f4	-0.104989916
161	0x3d7a4d0b	0.06110863
162	0x3e611e86	0.219843
163	0x3dd79227	0.10525923
164	0x3e5760b5	0.21032985
165	0x3e156857	0.14590584
166	0x3e16917b	0.14703934
167	0x3e44b175	0.1920832
168	0x3e246080	0.16052437
169	0xbc956b8e	-0.018239763
170	0xbd47a335	-0.04873963
171	0xbdc21808	-0.0947724
172	0x3c0558be	0.008138834
173	0xbd5061b1	-0.050874416
174	0x3df5c139	0.11999745
175	0x3e071a69	0.13193668
176	0x3d8063e8	0.062690556
177	0x3e10372b	0.14083545
178	0x3dbb1a73	0.09135904
179	0x3e16abf4	0.14714032
180	0x3e425359	0.18977107
181	0x3cbb9394	0.02289752
182	0x3e238b5e	0.15971133
183	0x3dc400c6	0.0957046
184	0x3e1312fd	0.14362712
185	0x3c5c88f5	0.0134603875
186	0xbd2dcd5b	-0.04243217
187	0x3b16a26c	0.0022984995
188	0xbc59ed1f	-0.013301163
189	0xbdf626dc	-0.120191306
190	0x3d9d51ca	0.07681616
191	0x3deb3f54	0.11486688
192	0x3cbeac41	0.023275496
193	0x3d9f40f2	0.07776059
194	0x3d06527f	0.03279352
195	0x3d94a2b2	0.07257594
196	0x3d4f882c	0.050666973
197	0x3e54c348	0.20777619
198	0x3dfbfcea	0.12304099
199	0x3e814282	0.25246054
200	0x3b8eac91	0.0043540676
201	0x3cd37191	0.025810989
202	0xbdc21a47	-0.09477668
203	0xbdb9028e	-0.090336904
204	0x3ce831d3	0.02834407
205	0x3d9ad914	0.075609356
206	0xbc493871	-0.012281523
207	0xbca472b3	-0.020074224
208	0x3e03a35a	0.12855282
209	0x3bdded28	0.006772656
210	0x3bd6e538	0.0065580867
211	0x3dff028b	0.12451657
212	0x3d91abf7	0.07112878
213	0xbd2dab42	-0.042399652
214	0x3e3f59bf	0.18686579
215	0xbdba9208	-0.091098845
216	0xbd6c237d	-0.05765103
217	0xbdfbb0f2	-0.12289609
218	0xbc2d4c8e	-0.010577334
219	0x3dc131cd	0.09433327
220	0x3e9ace48	0.30235505
221	0x3d700285	0.058596153
222	0x3e247833	0.16061477
223	0x3e091e6d	0.13390513
224	0xbe8ee038	-0.2790544
225	0xbd1c6dc0	-0.038190603
226	0x3e3ea282	0.1861668
227	0x3d01019f	0.031495687
228	0x3dba1221	0.09085489
229	0x3e21d2bd	0.15803047
230	0x3e2b9ed4	0.16759807
231	0xbdc74ae5	-0.09731082
232	0x3e919ffb	0.28442368
233	0x3d85c150	0.06531012
234	0xbd93cf65	-0.07217292
235	0xbd9e1baf	-0.07720124
236	0x3a8c3925	0.0010698183
237	0x3e1a74ec	0.15083665
238	0xbd699ce3	-0.057034384
239	0x3e6664cf	0.22499393
240	0x3dbeae5a	0.09310599
241	0x3ddf9604	0.10917285
242	0xbb8af5f9	-0.004240748
243	0x3d07174e	0.03298121
244	0xbc9265ce	-0.01787081
245	0xbd83e287	-0.06439691
246	0x3dc1e3a7	0.09467249
247	0xbd68b7a4	-0.05681576
248	0x3e377532	0.179158
249	0x3df2e16c	0.11859402
250	0xbd6e8d3c	-0.05824016
251	0x3e495023	0.19659476
252	0x3e1b6b7f	0.15177725
253	0x3e9e78f9	0.3095167
254	0xbcc8f3cb	-0.024530312
255	0x3e5935dc	0.21211952

lstm.weight_ih_l1 f4 [512, 128]
0	0xbe45b52d	-0.19307394
1	0xbe3203cb	-0.1738426
2	0x3d8d1557	0.06888836
3	0x3c8b95a0	0.01703912
4	0xbe93fae4	-0.28902352
5	0x3d5a1a95	0.053248007
6	0x3e857c22	0.26071268
7	0xbdf20bb5	-0.11818639
8	0x3e15eddd	0.14641519
9	0xbe117ee7	-0.14208566
10	0xbe967b47	-0.29390928
11	0x3e7f72f3	0.24946193
12	0x3c596554	0.013268787
13	0xbe5ff448	-0.2187053
14	0xb8ddbff0	-0.00010573852
15	0x3ddf5fe6	0.10906963
16	0x3e893995	0.26801744
17	0x3e803322	0.2503901
18	0x3e71f651	0.23629119
19	0x3ebbd00c	0.36682165
20	0x3e036ee3	0.12835269
21	0xbe6ae36f	-0.22938322
22	0x3e248497	0.16066204
23	0xbe3027a2	-0.17202619
24	0xbd715cea	-0.0589265
25	0x3e747a3a	0.2387475
26	0x3d1314b2	0.03590841
27	0x3e4c154c	0.19929999
28	0xbd36b9e1	-0.04461086
29	0x3d9f3129	0.077730484
30	0x3de6ffcc	0.11279258
31	0xbe2e9987	-0.17050754
32	0x3e96912d	0.29407635
33	0xbe1124a0	-0.14174128
34	0x3cb440d6	0.022003572
35	0xbd49a3fd	-0.049228657
36	0x3b8ac9cc	0.004235482
37	0xbe913fad	-0.28368893
38	0x3d8cf8bd	0.068833806
39	0x3df60563	0.12012746
40	0xbeaa818d	-0.33301964
41	0xbd9d98cf	-0.076951616
42	0xbe393cc6	-0.1808959
43	0x3da3e059	0.08001775
44	0xbd795068	-0.060867697
45	0x3df9da4c	0.1219984
46	0x3dc0b0ba	0.09408708
47	0x3de86301	0.113470085
48	0x3d9c618c	0.07635793
49	0xbe4dade8	-0.20085871
50	0xbe05c9cb	-0.13065259
51	0x3d3e60a6	0.04647889
52	0x3dd1ba65	0.1024063
53	0x3dd54fe7	0.10415631
54	0xba2ed25c	-0.0006668919
55	0xbe31bb61	-0.17356636
56	0xbe9dad29	-0.30796173
57	0xbe54be4e	-0.2077572
58	0x3e689fab	0.22717158
59	0xbe1fe843	-0.15615945
60	0xbda75905	-0.08171276
61	0x3e77945b	0.24177687
62	0xbe06124f	-0.13092922
63	0xbd3ac9dd	-0.045602668
64	0xbe018930	-0.12649989
65	0xbdb5fb5c	-0.088858336
66	0xbcb7f78c	-0.022456907
67	0xbed0dc08	-0.4079287
68	0x3e001f9f	0.12512062
69	0xbe27a5e0	-0.1637187
70	0x3ce84a0c	0.02835562
71	0x3e0ac26a	0.13550726
72	0xbdcad439	-0.099037595
73	0x3dd2c068	0.10290605
74	0x3cc89d84	0.024489172
75	0xbc82627c	-0.015916102
76	0x3ccd1e0a	0.025038738
77	0x3ebd14a0	0.36929798
78	0x3ceda2e8	0.029008344
79	0x3d83d961	0.06437946
80	0x3e57fb8b	0.2109205
81	0xbd12c41d	-0.03583156
82	0xbc6de3cb	-0.014519642
83	0xbc98b9ce	-0.018643286
84	0x3db2742d	0.08713565
85	0x3d4e49e4	0.050363436
86	0x3e05b883	0.13058667
87	0x3ebc0123	0.36719617
88	0xbe1f27f9	-0.15542592
89	0xbdb5adae	-0.088710174
90	0xbeb414ba	-0.35172063
91	0xbbb2c338	-0.005455401
92	0xbcdb078a	-0.026736993
93	0xbe6394be	-0.2222471
94	0x3b45a25e	0.0030156593
95	0xbea04bf4	-0.31307948
96	0xbe035a5e	-0.12827441
97	0x3e4e6542	0.20155814
98	0xbe583541	-0.21114065
99	0xbd0a0a0b	-0.033700984
100	0xbc7ee59b	-0.015557672
101	0x3e6df85d	0.23239274
102	0xbdb82478	-0.08991331
103	0x3c0bdb8e	0.008536233
104	0xbe24ae2c	-0.16082066
105	0xbca207ab	-0.019779047
106	0x3e8051b6	0.2506234
107	0x3e148698	0.14504468
108	0xbcc7b10b	-0.024376413
109	0x3dc09eef	0.09405314
110	0x3bf0c13c	0.007347254
111	0x3e35f1c8	0.17768013
112	0x3e989b4c	0.29805982
113	0x3ea87d9d	0.32908335
114	0xbea1223a	-0.31471425
115	0xbe1105bc	-0.14162344
116	0xbbae6314	-0.0053218696
117	0x3dcf743d	0.101295926
118	0x3e59b6b7	0.21261106
119	0xbeb0417d	-0.34424964
120	0x3cfeb7af	0.031093447
121	0x3e40bb4c	0.18821448
122	0xbde4bd00	-0.111688614
123	0x3a45de2d	0.00075480604
124	0x3ec7a180	0.38990402
125	0xbd58dd8d	-0.052945662
126	0x3da430d7	0.08017128
127	0xbd9ed622	-0.07755686
128	0xbe596929	-0.21231522
129	0x3dafdd7d	0.085871674
130	0x3db76630	0.089550376
131	0xbcd36b53	-0.025808012
132	0xbe2794b0	-0.16365314
133	0x3dfc7844	0.12327626
134	0xbebd74eb	-0.37003264
135	0x3dec6b2d	0.1154388
136	0xbd981217	-0.07425325
137	0x3c85959a	0.016306687
138	0x3d426cb3	0.047466945
139	0xbd215400	-0.03938675
140	0x3dc0ec9a	0.09420128
141	0x3bfe49cf	0.0077602635
142	0x3dfed38e	0.124426946
143	0x3d14d0b2	0.03633184
144	0xbd82e2fb	-0.06390949
145	0xbd9a6a20	-0.07539773
146	0xbe44ce7e	-0.19219396
147	0xbc91dbf6	-0.01780508
148	0x3c47f3c3	0.012204113
149	0x3e880f80	0.26574326
150	0xbe86cfc8	-0.263304
151	0xbd5c9bdc	-0.053859577
152	0x3d23dda9	0.040006313
153	0xbea8d4e4	-0.32974923
154	0xbdc50974	-0.09620944
155	0xbd8176c0	-0.06321478
156	0x3d80819b	0.0627472
157	0x3e1cd34e	0.15314981
158	0x3e5bce3d	0.21465392
159	0xbe2b1c2f	-0.1670997
160	0x3e258b10	0.1616633
161	0xbd00174c	-0.031272218
162	0x3ea6bc5a	0.32565576
163	0x3e1b0990	0.15140367
164	0x3d815cd3	0.06316533
165	0xbe9df899	-0.30853727
166	0x3e143bb5	0.14475901
167	0x3e42bbd3	0.19016962
168	0xbdfa718d	-0.12228689
169	0xbd35b3ff	-0.04436111
170	0xbddd9f8b	-0.10821446
171	0xbde58834	-0.11207619
172	0x3d55f31d	0.052233804
173	0xbbe5c44c	-0.007011926
174	0xbe77772d	-0.24166556
175	0x3d153bfd	0.036434162
176	0xbe3d65a7	-0.18495809
177	0x3ea0b41a	0.31387407
178	0x3d36527d	0.04451226
179	0xbe24a559	-0.160787
180	0x3d857aca	0.06517561
181	0xbcaab584	-0.020838507
182	0xbe80599a	-0.2506836
183	0x398b1f24	0.00026535348
184	0xbdb6e7df	-0.08930945
185	0xbcf196cb	-0.029490849
186	0x3e4c5e38	0.19957817
187	0x3e87fd44	0.26560414
188	0x3e4499b1	0.19199254
189	0xbda6854b	-0.08130892
190	0x3cdeeb0d	0.02721169
191	0x3e83881b	0.25689778
192	0x3e3d5ec4	0.18493181
193	0xbd455d89	-0.048184905
194	0x3dc7e959	0.097613044
195	0xbdcc8ba0	-0.09987569
196	0x3d802b12	0.06258215
197	0x3db354b6	0.08756392
198	0x3dd01de3	0.101619504
199	0x3e3f4273	0.18677692
200	0xbe0ceced	-0.13762255
201	0x3d00f29a	0.031481363
202	0xbd9ca826	-0.07649259
203	0x3e7a86db	0.24465506
204	0x3e7e3bc2	0.24827483
205	0x3eb55109	0.35413387
206	0xbe3c0a7c	-0.18363374
207	0xbe2f8e9b	-0.17144243
208	0xbe423d6f	-0.18968748
209	0xbd5d4d34	-0.054028705
210	0xbd4544e9	-0.04816142
211	0xbe81fbe3	-0.25387487
212	0x3d597a0a	0.0530949
213	0xbe5b7d14	-0.21434432
214	0xbe52e458	-0.20594919
215	0xbcdea652	-0.027178917
216	0x3dc0f30e	0.09421359
217	0x3d8409ee	0.064472064
218	0x3d142138	0.036164492
219	0xbc85df0e	-0.016341712
220	0xbe272d08	-0.16325772
221	0xbe3f7a27	-0.18698941
222	0x3e092379	0.13392438
223	0x3d968a97	0.07350653
224	0xbd65b8e3	-0.056084525
225	0x3e166b68	0.1468941
226	0x3e995eca	0.2995513
227	0xbe30ffc0	-0.17285061
228	0x3d004a35	0.03132077
229	0x3d0747cf	0.033027466
230	0x3dd0c312	0.10193457
231	0xbe882dad	-0.26597348
232	0x3e6b43ed	0.2297513
233	0x3cb63990	0.022244245
234	0x3bdc2102	0.006717802
235	0x3e12c7ca	0.14334026
236	0xbe5906df	-0.21194027
237	0xbca3fa4b	-0.02001681
238	0xbe0d3bbf	-0.13792323
239	0xbd131b92	-0.035914965
240	0x3e2eadb9	0.17058457
241	0x3e6f279c	0.23354954
242	0x3e2f8a3d	0.17142577
243	0xbdca79b0	-0.09886491
244	0xbb3ee0d4	-0.0029125707
245	0xbd5f6827	-0.054542687
246	0xbc99bda1	-0.01876718
247	0xbd7c5995	-0.06160887
248	0xbd80a8c1	-0.06282187
249	0xbdf16060	-0.1178596
250	0xbe00c4f9	-0.12575139
251	0x3df18472	0.1179284
252	0xbe03aa04	-0.12857825
253	0x3d9fbf50	0.07800162
254	0x3c76df5a	0.0150679
255	0xbe04548e	-0.1292288

lstm.weight_hh_l1 f4 [512, 128]
0	0x3e19141f	0.14949082
1	0xbd73d9b2	-0.059533782
2	0x3e6eaaa6	0.23307285
3	0xbe21f0de	-0.1581454
4	0xbdbec81f	-0.09315514
5	0x3d6f6cda	0.05845342
6	0xbe9bd498	-0.30435634
7	0x3dbecf71	0.0931691
8	0xbe499cf2	-0.19688776
9	0xbe60be70	-0.21947646
10	0xbc804698	-0.015658662
11	0x3e1871b0	0.14887118
12	0x3dfa9e3e	0.122372136
13	0x3d24eefb	0.040266972
14	0xbe462dbd	-0.19353385
15	0x3d8184ab	0.063241325
16	0xbe0e3b25	-0.1388975
17	0xbe7490de	-0.23883387
18	0xb8dbbd52	-0.000104779974
19	0x3c108d80	0.008822799
20	0xbdfc50ad	-0.12320075
21	0x3e36b6ae	0.17843124
22	0xbce84c68	-0.028356746
23	0x3b841f1a	0.004032028
24	0xbdd3de14	-0.103450924
25	0x3d66d79d	0.05635797
26	0x3b0590cb	0.0020380493
27	0xbe7674a5	-0.24067934
28	0xbe3c8ecd	-0.18413849
29	0xbc4d2f35	-0.012523462
30	0x3c35a9b0	0.01108782
31	0x3e0e46cd	0.13894196
32	0x3e21b411	0.15791346
33	0xbe442e66	-0.19158325
34	0x3d41c527	0.04730716
35	0xbe7ddcc9	-0.24791254
36	0x3d7661de	0.060151927
37	0xbccea43e	-0.025224801
38	0x3e67b257	0.22626625
39	0x3c996c20	0.018728316
40	0x3cba0719	0.022708463
41	0x3e45cca5	0.19316347
42	0xbe43829a	-0.1909279
43	0x3e2d748c	0.1693899
44	0xbe30e285	-0.1727391
45	0x3d088a51	0.033335034
46	0xbe15ae73	-0.14617328
47	0x3e4babfc	0.19889826
48	0xbdd59d5d	-0.10430405
49	0xbc83e443	-0.016100055
50	0x3dd4bd16	0.10387628
51	0x3dcd2215	0.10016266
52	0x3d0a0157	0.033692684
53	0xbe8a9017	-0.27063057
54	0x3cc4a009	0.024002092
55	0xbe1a107f	-0.15045355
56	0xbdc8df14	-0.09808174
57	0x3c464646	0.012101715
58	0xbe20b7e7	-0.15695153
59	0x3d19645e	0.037449233
60	0xbe50fa49	-0.20407976
61	0x3e151379	0.1455821
62	0x3e35e268	0.17762148
63	0xbe65fbc7	-0.22459327
64	0xbda1cf68	-0.07900888
65	0x3e30e348	0.17274201
66	0x3e399927	0.18124829
67	0x3d261607	0.04054835
68	0xbe948123	-0.29004773
69	0xbeb0487d	-0.34430304
70	0xbe1fe26e	-0.1561372
71	0x3daf4b33	0.08559265
72	0xbe92f4c3	-0.28702363
73	0x3c5a0a5d	0.013308135
74	0x3c41bbde	0.011824576
75	0xbe274279	-0.16333951
76	0xbe3d4202	-0.18482211
77	0xbe3edf47	-0.18639861
78	0xbe37bd31	-0.17943265
79	0x3d4cf04a	0.050033845
80	0x3d1a7462	0.037708648
81	0xbdc55062	-0.096344724
82	0xbe59e202	-0.21277621
83	0x3dd69ed6	0.10479514
84	0xbe7f72c5	-0.24946125
85	0x3dc4c04b	0.096069895
86	0x3e214885	0.1575032
87	0x3e3606b3	0.17775993
88	0x3e41e59f	0.1893525
89	0xbe80c6c2	-0.2515164
90	0x3e91fc40	0.28512764
91	0x3e590c63	0.21196131
92	0xbdb7e1f6	-0.089786455
93	0x3ec7f972	0.390575
94	0x3d055cb9	0.03255913
95	0xbdabbb4f	-0.08385336
96	0xbc1f2b0e	-0.009714855
97	0x3e68bead	0.22728987
98	0x3e2f765c	0.17134994
99	0x3d26de4c	0.040739343
100	0x3c71cf6c	0.014758926
101	0xbd9b139f	-0.07572102
102	0xbead9aed	-0.33907261
103	0xbda833e4	-0.08213022
104	0x3dd9d74f	0.1063677
105	0x3cccb3cf	0.024988083
106	0x3bd883b1	0.0066074957
107	0x3b5facbc	0.0034130057
108	0x3dddb96a	0.108263806
109	0x3e157abc	0.145976
110	0xbdefb241	-0.11703921
111	0xbcea9c88	-0.028639093
112	0xbdec7ea6	-0.11547594
113	0x3e5f2f03	0.21795277
114	0xbe1761bf	-0.14783381
115	0x3e4e8dfd	0.20171352
116	0xbdd7076f	-0.10499465
117	0xbcdab72a	-0.026698668
118	0x3c1a7708	0.009427793
119	0xbda05134	-0.07827988
120	0xbe0a741e	-0.13520858
121	0xbdcd9258	-0.100376785
122	0xbd8f1b46	-0.06987624
123	0x3cdea5d9	0.027178692
124	0x3d620d19	0.055188272
125	0xbe626c28	-0.22111571
126	0xbdb2467a	-0.087048486
127	0xbe2d4248	-0.16919816
128	0x3dc611b0	0.096713424
129	0x3e0a6e02	0.13518527
130	0x3e397ad7	0.18113266
131	0xbdb31740	-0.08744669
132	0x3d61a7b0	0.05509156
133	0xbe3755b1	-0.17903782
134	0xbc879a70	-0.016553134
135	0x3e509bb2	0.20371893
136	0xbe3a24f0	-0.18178153
137	0xbd769c28	-0.060207516
138	0xbe34ac76	-0.17643914
139	0xbda967c0	-0.08271742
140	0x3e4390f9	0.19098271
141	0xbe14fd39	-0.14549722
142	0x3de87ce9	0.1135195
143	0x3e2e10b3	0.16998558
144	0xbea02525	-0.3127834
145	0x3e19ea11	0.15030695
146	0x3d5cfc31	0.053951446
147	0xbdb53f35	-0.088499464
148	0xbe2dc071	-0.16967942
149	0xbe3642bf	-0.17798899
150	0x3da6c72d	0.081434585
151	0xbd2d5cf5	-0.04232498
152	0xbe513b38	-0.20432746
153	0xbbefda54	-0.007319728
154	0x3e12c694	0.14333564
155	0xbdb49bb9	-0.08818764
156	0xbd867977	-0.06566136
157	0xbd929382	-0.07157041
158	0xbcf67660	-0.030085742
159	0x3de7879b	0.113051616
160	0x3d1c38ba	0.038140036
161	0xbdee79b8	-0.1164431
162	0x3e0fb218	0.14032781
163	0xbd2f201c	-0.04275523
164	0xbd8dcdf4	-0.06924048
165	0xbd1bcb77	-0.038035836
166	0x3e28b117	0.16473804
167	0x3cdd7451	0.027033003
168	0x3ccdd209	0.025124567
169	0xbc6667c3	-0.014062825
170	0xbe16af39	-0.1471528
171	0x3e7e2d73	0.24822025
172	0xbea623bc	-0.32449138
173	0x3d9df4b2	0.077126876
174	0x3cdb0f00	0.026740551
175	0x3df6b389	0.12045962
176	0x3dc85e12	0.097835675
177	0x3dc75601	0.09733201
178	0xbcceb31e	-0.025231894
179	0x3e8dd44c	0.27701032
180	0xbca562e2	-0.020188753
181	0x3e301ede	0.17199275
182	0x3df5425e	0.11975549
183	0x3cd7c70f	0.026340036
184	0xbe31e1bc	-0.17371267
185	0x3d736d21	0.059430245
186	0xbdd1d928	-0.102464974
187	0x3e541434	0.20710832
188	0x3dfb1dea	0.12261565
189	0x3e1d18dc	0.15341514
190	0xbe2076a9	-0.15670265
191	0xb83fe89c	-4.5754583e-05
192	0xbdb2ae71	-0.08724678
193	0xba0cb1b4	-0.0005367056
194	0x3e8bc249	0.27296665
195	0x3e1982de	0.14991328
196	0xbd4752a0	-0.04866278
197	0x3e4e97fd	0.20175166
198	0x3b70834d	0.0036699355
199	0xbe18df25	-0.14928873
200	0xbe6f10ea	-0.23346296
201	0x3e0c456a	0.13698354
202	0xbd4cebc4	-0.05002953
203	0xbe5d8b33	-0.21635132
204	0xbd9819db	-0.074268065
205	0x3dadb250	0.08481276
206	0x3b2fe54f	0.002683956
207	0x3e238c4f	0.15971492
208	0x3e230d65	0.15923078
209	0xbe8975c8	-0.26847672
210	0xbe6a4da6	-0.22881183
211	0x3e2c7a1d	0.16843458
212	0xbe445658	-0.19173563
213	0x3dd4b5a8	0.10386211
214	0x3e02a31b	0.12757532
215	0x3de4a4d9	0.11164255
216	0xbc6e39de	-0.014540164
217	0x3e45a42b	0.19300906
218	0x3bcbe0df	0.006221875
219	0x3d0ad339	0.033892844
220	0xbe2b74a8	-0.1674372
221	0x3e785958	0.24252832
222	0x3d03c190	0.032167017
223	0x3be1a273	0.0068858205
224	0xbc49b37b	-0.012310858
225	0x3e7d0500	0.24708939
226	0xbda9375f	-0.08262514
227	0x3d5064e1	0.050877456
228	0xbe555642	-0.20833686
229	0x3e8207ef	0.25396678
230	0xbe23515b	-0.15949003
231	0xbe2fa291	-0.17151858
232	0x3e236996	0.15958247
233	0x3e03f0d8	0.12884843
234	0x3e5c36e5	0.21505316
235	0xbe9442ff	-0.28957364
236	0x3d94b7d5	0.07261626
237	0xbe2778cc	-0.16354674
238	0xbd833268	-0.064060986
239	0xbdafc9d6	-0.08583419
240	0xbea1b04c	-0.31579816
241	0x3e23c92d	0.15994711
242	0xbe40c081	-0.18823434
243	0x3de2d570	0.11075866
244	0xbe3f0867	-0.18655549
245	0xbe74b884	-0.23898512
246	0x3dd4066f	0.103527896
247	0xbdaa786a	-0.083237484
248	0xbdc4a8a1	-0.09602476
249	0x3e0763d5	0.13221677
250	0xbe6c2586	-0.23061189
251	0x3d93cde6	0.072170064
252	0x3d382532	0.044957347
253	0xbda3644c	-0.079781145
254	0xbdf745c6	-0.12073855
255	0x3d7172a5	0.058947224

lstm.bias_ih_l1 f4 [512]
0	0xbe16bb27	-0.1471983
1	0xbde2d1d7	-0.1107518
2	0xbe24ed23	-0.16106085
3	0xbd8fdb95	-0.07024304
4	0xbcd16841	-0.025562407
5	0xbda3a9c9	-0.07991368
6	0x3e9343ae	0.28762573
7	0xbe103c76	-0.14085564
8	0x3c8467cb	0.016162774
9	0xbddbfe95	-0.10741917
10	0xbe584322	-0.21119359
11	0xbdac2260	-0.08404994
12	0xbdb4727c	-0.08810899
13	0xbe517a3f	-0.2045679
14	0x3cbc2bd2	0.022970114
15	0xbdbb9c0d	-0.09160624
16	0xbe6a1ce9	-0.22862591
17	0xbe3a5d7a	-0.18199721
18	0x3ea00da1	0.31260398
19	0xbe2dad75	-0.169607
20	0xbe0fa3a6	-0.1402727
21	0x3d2a3cf6	0.041562043
22	0xbd718e75	-0.05897375
23	0x3f0c12ba	0.54716074
24	0xbcc77559	-0.024347948
25	0xbe804392	-0.25051552
26	0xbe19a8a7	-0.15005742
27	0xbd238e37	-0.03993055
28	0xbd9f2039	-0.07769818
29	0xbe3e8f73	-0.18609409
30	0xbd6b73c2	-0.057483442
31	0xbd8e3df4	-0.0694541
32	0x3c81accf	0.015829472
33	0xbcd2d42d	-0.025735939
34	0xbe417bb0	-0.1889484
35	0x3e5803e3	0.21095233
36	0x3c53320b	0.012890349
37	0xbd981403	-0.07425692
38	0x3deeb9d9	0.116565414
39	0xbcd2ceff	-0.025733469
40	0xbd6ef361	-0.058337573
41	0x3d381015	0.044937212
42	0xbe532f4e	-0.20623514
43	0xbdc8fbb0	-0.098136306
44	0xbe0a5918	-0.13510549
45	0xbd6f2a85	-0.05839016
46	0xbc5d96f4	-0.01352476
47	0xbde61347	-0.112341456
48	0x3e068a32	0.13138655
49	0xbcca6eb8	-0.024710998
50	0xbe142dd5	-0.14470609
51	0xbe30a1c7	-0.17249213
52	0xbd90f923	-0.07078769
53	0xbd3ce0a1	-0.04611266
54	0xbe523ae1	-0.20530273
55	0xbdd3ab7c	-0.103354424
56	0xbd7e2b8d	-0.062053252
57	0xbdd9e205	-0.10638813
58	0xbd100f52	-0.03517086
59	0xbd99eb29	-0.07515556
60	0x3ef87a1a	0.48530656
61	0xbd8c2624	-0.06843212
62	0x3bf4354d	0.007452643
63	0xbd88c580	-0.06678295
64	0x3dadcb79	0.08486075
65	0x3cfc0248	0.030762807
66	0xbe30289f	-0.17202996
67	0xbd93c9bb	-0.072162114
68	0xbcbb6d43	-0.022879248
69	0x3d1b6715	0.037940104
70	0xbe46bde3	-0.19408374
71	0x3ce7a12e	0.028275099
72	0xbe5940a5	-0.21216066
73	0xbe14ff46	-0.14550504
74	0xbe1aeed7	-0.15130173
75	0x3dfeded4	0.12444845
76	0xbdddb79d	-0.10826037
77	0xbda78351	-0.081793435
78	0xbe24f8d8	-0.16110551
79	0xbd7b9468	-0.061420828
80	0xbdecd477	-0.11563962
81	0xbbaa6b2e	-0.005200765
82	0xbe2523a4	-0.16126877
83	0xbe00486d	-0.12527628
84	0xbe083e72	-0.13305071
85	0xbd1608fa	-0.036629654
86	0xbd79ea97	-0.061014738
87	0x3e270e1f	0.1631398
88	0xbe167e0f	-0.14696525
89	0x3cc8fe81	0.02453542
90	0x3dea02f3	0.11426344
91	0x3ebbf8d4	0.36713278
92	0x3c157198	0.009121321
93	0xbca99d05	-0.020704756
94	0xbde7aab6	-0.113118574
95	0xbd9aa08f	-0.07550155
96	0xbdfd558e	-0.12369834
97	0xbddc6589	-0.10761554
98	0xbdcc4323	-0.09973743
99	0xbe1f580c	-0.15560931
100	0x3cc178bb	0.02361714
101	0xbe1d9d34	-0.15392
102	0x3e1542d4	0.14576274
103	0xbdb41b79	-0.087943025
104	0x3dd28dcd	0.102809526
105	0xbdf75559	-0.12076826
106	0xbe6b3836	-0.22970662
107	0xbb14b667	-0.0022691728
108	0x3ca555d9	0.020182537
109	0xbde05516	-0.10953729
110	0x3e4499d5	0.19199307
111	0x3cbd4634	0.023104765
112	0xbe77b690	-0.24190736
113	0xbc66d965	-0.014089917
114	0xbdbbfdba	-0.09179254
115	0xbd8847b8	-0.06654304
116	0xbe0c73ae	-0.13716003
117	0xbddb7682	-0.10715963
118	0x3d7b7d10	0.061398566
119	0xbd8b7bf8	-0.068107545
120	0x3e4f1ffc	0.20227045
121	0xbe0f0b0f	-0.13969062
122	0x3d1e23fd	0.03860854
123	0xbd384a9d	-0.04499303
124	0xbe008eaa	-0.12554422
125	0xbe06b265	-0.1315399
126	0x3cd13c81	0.025541546
127	0xbe64d062	-0.22345117
128	0xbd9538f8	-0.072862566
129	0xbc6b4bcd	-0.014361334
130	0xbd4df14f	-0.050278958
131	0x3d14cf7c	0.036330685
132	0xbe48d06d	-0.19610758
133	0xbd0624f7	-0.032750096
134	0xbe9feb84	-0.31234372
135	0x3b25b5a7	0.0025285275
136	0x3e364734	0.178006
137	0xbc87ad9a	-0.016562272
138	0xbde8e429	-0.11371643
139	0xbe01bd92	-0.12669972
140	0x3c783c0e	0.015151037
141	0x3d229cf2	0.039700456
142	0xbc0c2ef1	-0.008556114
143	0xbc2f4881	-0.010698439
144	0xbd316790	-0.043311656
145	0x3c91d547	0.017801894
146	0xbe8fec58	-0.28110003
147	0x3c051942	0.008123698
148	0xbdf35e2b	-0.118831955
149	0xbd6e9125	-0.05824389
150	0xbe0160c2	-0.12634566
151	0xbeb512f8	-0.35366035
152	0x3cd8c1ae	0.026459541
153	0xbe3e3e67	-0.18578492
154	0xbe125406	-0.14289865
155	0x3c65a58a	0.014016518
156	0x3ddbc3ca	0.10730703
157	0xbe45472a	-0.19265428
158	0x3d089c7a	0.033352353
159	0xbafee4f8	-0.00194469
160	0xbc3a09a2	-0.011354836
161	0x3da73e2d	0.08166156
162	0xbd22a697	-0.039709654
163	0x3e9858a3	0.29755124
164	0x3dcc3bb3	0.09972324
165	0xbce9afbe	-0.028526183
166	0x3e458541	0.19289114
167	0x3d8494a7	0.06473666
168	0xbd80bd5a	-0.06286116
169	0x3d299ca7	0.04140916
170	0xbc8358fc	-0.016033642
171	0xbc840822	-0.01611716
172	0xbcebd066	-0.028785896
173	0xbcc7fab9	-0.024411546
174	0x3cd0233d	0.025407428
175	0x3c700839	0.014650398
176	0xbe39cf05	-0.18145378
177	0xbe5ad9a2	-0.21372083
178	0x3c9c02fa	0.019044388
179	0x3bdde0fd	0.0067712055
180	0x39585452	0.00020630777
181	0xbd01dd29	-0.031705055
182	0xbd420f1e	-0.047377698
183	0xbda3284f	-0.07966673
184	0xbdaa8241	-0.08325625
185	0xbd99e0c1	-0.075135715
186	0xbcaa308e	-0.020775106
187	0x3cc8f59e	0.024531182
188	0xbec0cc1c	-0.37655723
189	0x3d93b987	0.07213121
190	0x3cd3124e	0.025765564
191	0xbd872a38	-0.065998495
192	0x3dda7709	0.106672354
193	0x3d514908	0.05109504
194	0xbcafcbff	-0.021459578
195	0xbe1dd8b1	-0.15414692
196	0xbd86cc00	-0.06581879
197	0xbe3f4185	-0.18677337
198	0xbe83d8ba	-0.25751287
199	0xbde31450	-0.11087859
200	0xbdcadde6	-0.09905605
201	0x3d04f199	0.032456968
202	0xbe7d3e0d	-0.24730702
203	0x3e06c0fd	0.13159557
204	0xbdbc9f66	-0.0921009
205	0xbe13afa3	-0.14422469
206	0xbd79dfee	-0.06100457
207	0xbb64f03a	-0.0034933225
208	0xbd854ae3	-0.06508424
209	0xbd29c7a4	-0.041450158
210	0xbcb23ffd	-0.021759028
211	0x3d3a2d01	0.045453075
212	0x3b90e992	0.004422375
213	0xbc1e5ae2	-0.009665223
214	0xbda0917e	-0.078402504
215	0x3e821a4e	0.25410694
216	0xbdc5547e	-0.09635256
217	0xbd54f12b	-0.05198781
218	0x3de5150b	0.11185654
219	0xbe27d992	-0.1639159
220	0x3e26fdb3	0.16307716
221	0x3d002c59	0.031292293
222	0xbd95f702	-0.073225036
223	0xbd682063	-0.05667151
224	0xbd83bd98	-0.064326465
225	0xbdb83c7e	-0.08995913
226	0xbd4ee65c	-0.050512657
227	0xbd2f7d83	-0.042844307
228	0xbe1abb8b	-0.15110604
229	0x3c251936	0.010076812
230	0xbe75dcee	-0.24010059
231	0xbcf00c30	-0.029302686
232	0x3e7239ce	0.23654863
233	0xbd411498	-0.04713878
234	0xbccf4233	-0.025300121
235	0x3c83de60	0.016097248
236	0xbe3754cd	-0.17903443
237	0xbd1dee28	-0.0385572
238	0xbdd7ceb4	-0.10537472
239	0xbd150005	-0.03637697
240	0xbb887e04	-0.004165413
241	0x3dd3e436	0.10346262
242	0x3d61797f	0.05504751
243	0xbd645986	-0.05574944
244	0xbe0362ea	-0.12830701
245	0xbdbed920	-0.09318757
246	0xbdcbb55d	-0.09946702
247	0xbd509b3a	-0.050929286
248	0xbda84a96	-0.08217351
249	0x3d329797	0.0436016
250	0x3a4a848a	0.00077254383
251	0xbd131b85	-0.035914917
252	0xbe298423	-0.16554312
253	0xbcc6d42e	-0.024271097
254	0x3b32bbd1	0.0027272592
255	0xbd9c7b4f	-0.07640707
